…
I0514 15:25:22.616008 12600 upgrade_proto.cpp:80] Successfully upgraded batch norm layers using deprecated params.
I0514 15:25:22.616413 12600 net.cpp:322] The NetState phase (0) differed from the phase (1) specified by a rule in layer detection_out
I0514 15:25:22.618249 12600 net.cpp:58] Initializing net from parameters: 
name: "ResNet_VOC0712_SSD_300x300_deploy"
state {
  phase: TRAIN
  level: 0
  stage: ""
}
layer {
  name: "input"
  type: "Input"
  top: "data"
  input_param {
    shape {
      dim: 1
      dim: 3
      dim: 300
      dim: 300
    }
  }
}
layer {
  name: "conv1"
  type: "Convolution"
  bottom: "data"
  top: "conv1"
  param {
    lr_mult: 1
    decay_mult: 1
  }
  convolution_param {
    num_output: 64
    bias_term: false
    pad: 3
    kernel_size: 7
    stride: 2
    weight_filler {
      type: "gaussian"
      std: 0.01
    }
  }
}
layer {
  name: "bn_conv1"
  type: "BatchNorm"
  bottom: "conv1"
  top: "conv1"
  batch_norm_param {
    moving_average_fraction: 0.999
    eps: 0.001
  }
}
layer {
  name: "scale_conv1"
  type: "Scale"
  bottom: "conv1"
  top: "conv1"
  param {
    lr_mult: 1
    decay_mult: 0
  }
  param {
    lr_mult: 1
    decay_mult: 0
  }
  scale_param {
    filler {
      type: "constant"
      value: 1
    }
    bias_term: true
    bias_filler {
      type: "constant"
      value: 0
    }
  }
}
layer {
  name: "conv1_relu"
  type: "ReLU"
  bottom: "conv1"
  top: "conv1"
}
layer {
  name: "pool1"
  type: "Pooling"
  bottom: "conv1"
  top: "pool1"
  pooling_param {
    pool: MAX
    kernel_size: 3
    stride: 2
  }
}
layer {
  name: "res2a_branch1"
  type: "Convolution"
  bottom: "pool1"
  top: "res2a_branch1"
  param {
    lr_mult: 1
    decay_mult: 1
  }
  convolution_param {
    num_output: 256
    bias_term: false
    pad: 0
    kernel_size: 1
    stride: 1
    weight_filler {
      type: "gaussian"
      std: 0.01
    }
  }
}
layer {
  name: "bn2a_branch1"
  type: "BatchNorm"
  bottom: "res2a_branch1"
  top: "res2a_branch1"
  batch_norm_param {
    moving_average_fraction: 0.999
    eps: 0.001
  }
}
layer {
  name: "scale2a_branch1"
  type: "Scale"
  bottom: "res2a_branch1"
  top: "res2a_branch1"
  param {
    lr_mult: 1
    decay_mult: 0
  }
  param {
    lr_mult: 1
    decay_mult: 0
  }
  scale_param {
    filler {
      type: "constant"
      value: 1
    }
    bias_term: true
    bias_filler {
      type: "constant"
      value: 0
    }
  }
}
layer {
  name: "res2a_branch2a"
  type: "Convolution"
  bottom: "pool1"
  top: "res2a_branch2a"
  param {
    lr_mult: 1
    decay_mult: 1
  }
  convolution_param {
    num_output: 64
    bias_term: false
    pad: 0
    kernel_size: 1
    stride: 1
    weight_filler {
      type: "gaussian"
      std: 0.01
    }
  }
}
layer {
  name: "bn2a_branch2a"
  type: "BatchNorm"
  bottom: "res2a_branch2a"
  top: "res2a_branch2a"
  batch_norm_param {
    moving_average_fraction: 0.999
    eps: 0.001
  }
}
layer {
  name: "scale2a_branch2a"
  type: "Scale"
  bottom: "res2a_branch2a"
  top: "res2a_branch2a"
  param {
    lr_mult: 1
    decay_mult: 0
  }
  param {
    lr_mult: 1
    decay_mult: 0
  }
  scale_param {
    filler {
      type: "constant"
      value: 1
    }
    bias_term: true
    bias_filler {
      type: "constant"
      value: 0
    }
  }
}
layer {
  name: "res2a_branch2a_relu"
  type: "ReLU"
  bottom: "res2a_branch2a"
  top: "res2a_branch2a"
}
layer {
  name: "res2a_branch2b"
  type: "Convolution"
  bottom: "res2a_branch2a"
  top: "res2a_branch2b"
  param {
    lr_mult: 1
    decay_mult: 1
  }
  convolution_param {
    num_output: 64
    bias_term: false
    pad: 1
    kernel_size: 3
    stride: 1
    weight_filler {
      type: "gaussian"
      std: 0.01
    }
  }
}
layer {
  name: "bn2a_branch2b"
  type: "BatchNorm"
  bottom: "res2a_branch2b"
  top: "res2a_branch2b"
  batch_norm_param {
    moving_average_fraction: 0.999
    eps: 0.001
  }
}
layer {
  name: "scale2a_branch2b"
  type: "Scale"
  bottom: "res2a_branch2b"
  top: "res2a_branch2b"
  param {
    lr_mult: 1
    decay_mult: 0
  }
  param {
    lr_mult: 1
    decay_mult: 0
  }
  scale_param {
    filler {
      type: "constant"
      value: 1
    }
    bias_term: true
    bias_filler {
      type: "constant"
      value: 0
    }
  }
}
layer {
  name: "res2a_branch2b_relu"
  type: "ReLU"
  bottom: "res2a_branch2b"
  top: "res2a_branch2b"
}
layer {
  name: "res2a_branch2c"
  type: "Convolution"
  bottom: "res2a_branch2b"
  top: "res2a_branch2c"
  param {
    lr_mult: 1
    decay_mult: 1
  }
  convolution_param {
    num_output: 256
    bias_term: false
    pad: 0
    kernel_size: 1
    stride: 1
    weight_filler {
      type: "gaussian"
      std: 0.01
    }
  }
}
layer {
  name: "bn2a_branch2c"
  type: "BatchNorm"
  bottom: "res2a_branch2c"
  top: "res2a_branch2c"
  batch_norm_param {
    moving_average_fraction: 0.999
    eps: 0.001
  }
}
layer {
  name: "scale2a_branch2c"
  type: "Scale"
  bottom: "res2a_branch2c"
  top: "res2a_branch2c"
  param {
    lr_mult: 1
    decay_mult: 0
  }
  param {
    lr_mult: 1
    decay_mult: 0
  }
  scale_param {
    filler {
      type: "constant"
      value: 1
    }
    bias_term: true
    bias_filler {
      type: "constant"
      value: 0
    }
  }
}
layer {
  name: "res2a"
  type: "Eltwise"
  bottom: "res2a_branch1"
  bottom: "res2a_branch2c"
  top: "res2a"
}
layer {
  name: "res2a_relu"
  type: "ReLU"
  bottom: "res2a"
  top: "res2a"
}
layer {
  name: "res2b_branch2a"
  type: "Convolution"
  bottom: "res2a"
  top: "res2b_branch2a"
  param {
    lr_mult: 1
    decay_mult: 1
  }
  convolution_param {
    num_output: 64
    bias_term: false
    pad: 0
    kernel_size: 1
    stride: 1
    weight_filler {
      type: "gaussian"
      std: 0.01
    }
  }
}
layer {
  name: "bn2b_branch2a"
  type: "BatchNorm"
  bottom: "res2b_branch2a"
  top: "res2b_branch2a"
  batch_norm_param {
    moving_average_fraction: 0.999
    eps: 0.001
  }
}
layer {
  name: "scale2b_branch2a"
  type: "Scale"
  bottom: "res2b_branch2a"
  top: "res2b_branch2a"
  param {
    lr_mult: 1
    decay_mult: 0
  }
  param {
    lr_mult: 1
    decay_mult: 0
  }
  scale_param {
    filler {
      type: "constant"
      value: 1
    }
    bias_term: true
    bias_filler {
      type: "constant"
      value: 0
    }
  }
}
layer {
  name: "res2b_branch2a_relu"
  type: "ReLU"
  bottom: "res2b_branch2a"
  top: "res2b_branch2a"
}
layer {
  name: "res2b_branch2b"
  type: "Convolution"
  bottom: "res2b_branch2a"
  top: "res2b_branch2b"
  param {
    lr_mult: 1
    decay_mult: 1
  }
  convolution_param {
    num_output: 64
    bias_term: false
    pad: 1
    kernel_size: 3
    stride: 1
    weight_filler {
      type: "gaussian"
      std: 0.01
    }
  }
}
layer {
  name: "bn2b_branch2b"
  type: "BatchNorm"
  bottom: "res2b_branch2b"
  top: "res2b_branch2b"
  batch_norm_param {
    moving_average_fraction: 0.999
    eps: 0.001
  }
}
layer {
  name: "scale2b_branch2b"
  type: "Scale"
  bottom: "res2b_branch2b"
  top: "res2b_branch2b"
  param {
    lr_mult: 1
    decay_mult: 0
  }
  param {
    lr_mult: 1
    decay_mult: 0
  }
  scale_param {
    filler {
      type: "constant"
      value: 1
    }
    bias_term: true
    bias_filler {
      type: "constant"
      value: 0
    }
  }
}
layer {
  name: "res2b_branch2b_relu"
  type: "ReLU"
  bottom: "res2b_branch2b"
  top: "res2b_branch2b"
}
layer {
  name: "res2b_branch2c"
  type: "Convolution"
  bottom: "res2b_branch2b"
  top: "res2b_branch2c"
  param {
    lr_mult: 1
    decay_mult: 1
  }
  convolution_param {
    num_output: 256
    bias_term: false
    pad: 0
    kernel_size: 1
    stride: 1
    weight_filler {
      type: "gaussian"
      std: 0.01
    }
  }
}
layer {
  name: "bn2b_branch2c"
  type: "BatchNorm"
  bottom: "res2b_branch2c"
  top: "res2b_branch2c"
  batch_norm_param {
    moving_average_fraction: 0.999
    eps: 0.001
  }
}
layer {
  name: "scale2b_branch2c"
  type: "Scale"
  bottom: "res2b_branch2c"
  top: "res2b_branch2c"
  param {
    lr_mult: 1
    decay_mult: 0
  }
  param {
    lr_mult: 1
    decay_mult: 0
  }
  scale_param {
    filler {
      type: "constant"
      value: 1
    }
    bias_term: true
    bias_filler {
      type: "constant"
      value: 0
    }
  }
}
layer {
  name: "res2b"
  type: "Eltwise"
  bottom: "res2a"
  bottom: "res2b_branch2c"
  top: "res2b"
}
layer {
  name: "res2b_relu"
  type: "ReLU"
  bottom: "res2b"
  top: "res2b"
}
layer {
  name: "res2c_branch2a"
  type: "Convolution"
  bottom: "res2b"
  top: "res2c_branch2a"
  param {
    lr_mult: 1
    decay_mult: 1
  }
  convolution_param {
    num_output: 64
    bias_term: false
    pad: 0
    kernel_size: 1
    stride: 1
    weight_filler {
      type: "gaussian"
      std: 0.01
    }
  }
}
layer {
  name: "bn2c_branch2a"
  type: "BatchNorm"
  bottom: "res2c_branch2a"
  top: "res2c_branch2a"
  batch_norm_param {
    moving_average_fraction: 0.999
    eps: 0.001
  }
}
layer {
  name: "scale2c_branch2a"
  type: "Scale"
  bottom: "res2c_branch2a"
  top: "res2c_branch2a"
  param {
    lr_mult: 1
    decay_mult: 0
  }
  param {
    lr_mult: 1
    decay_mult: 0
  }
  scale_param {
    filler {
      type: "constant"
      value: 1
    }
    bias_term: true
    bias_filler {
      type: "constant"
      value: 0
    }
  }
}
layer {
  name: "res2c_branch2a_relu"
  type: "ReLU"
  bottom: "res2c_branch2a"
  top: "res2c_branch2a"
}
layer {
  name: "res2c_branch2b"
  type: "Convolution"
  bottom: "res2c_branch2a"
  top: "res2c_branch2b"
  param {
    lr_mult: 1
    decay_mult: 1
  }
  convolution_param {
    num_output: 64
    bias_term: false
    pad: 1
    kernel_size: 3
    stride: 1
    weight_filler {
      type: "gaussian"
      std: 0.01
    }
  }
}
layer {
  name: "bn2c_branch2b"
  type: "BatchNorm"
  bottom: "res2c_branch2b"
  top: "res2c_branch2b"
  batch_norm_param {
    moving_average_fraction: 0.999
    eps: 0.001
  }
}
layer {
  name: "scale2c_branch2b"
  type: "Scale"
  bottom: "res2c_branch2b"
  top: "res2c_branch2b"
  param {
    lr_mult: 1
    decay_mult: 0
  }
  param {
    lr_mult: 1
    decay_mult: 0
  }
  scale_param {
    filler {
      type: "constant"
      value: 1
    }
    bias_term: true
    bias_filler {
      type: "constant"
      value: 0
    }
  }
}
layer {
  name: "res2c_branch2b_relu"
  type: "ReLU"
  bottom: "res2c_branch2b"
  top: "res2c_branch2b"
}
layer {
  name: "res2c_branch2c"
  type: "Convolution"
  bottom: "res2c_branch2b"
  top: "res2c_branch2c"
  param {
    lr_mult: 1
    decay_mult: 1
  }
  convolution_param {
    num_output: 256
    bias_term: false
    pad: 0
    kernel_size: 1
    stride: 1
    weight_filler {
      type: "gaussian"
      std: 0.01
    }
  }
}
layer {
  name: "bn2c_branch2c"
  type: "BatchNorm"
  bottom: "res2c_branch2c"
  top: "res2c_branch2c"
  batch_norm_param {
    moving_average_fraction: 0.999
    eps: 0.001
  }
}
layer {
  name: "scale2c_branch2c"
  type: "Scale"
  bottom: "res2c_branch2c"
  top: "res2c_branch2c"
  param {
    lr_mult: 1
    decay_mult: 0
  }
  param {
    lr_mult: 1
    decay_mult: 0
  }
  scale_param {
    filler {
      type: "constant"
      value: 1
    }
    bias_term: true
    bias_filler {
      type: "constant"
      value: 0
    }
  }
}
layer {
  name: "res2c"
  type: "Eltwise"
  bottom: "res2b"
  bottom: "res2c_branch2c"
  top: "res2c"
}
layer {
  name: "res2c_relu"
  type: "ReLU"
  bottom: "res2c"
  top: "res2c"
}
layer {
  name: "res3a_branch1"
  type: "Convolution"
  bottom: "res2c"
  top: "res3a_branch1"
  param {
    lr_mult: 1
    decay_mult: 1
  }
  convolution_param {
    num_output: 512
    bias_term: false
    pad: 0
    kernel_size: 1
    stride: 2
    weight_filler {
      type: "gaussian"
      std: 0.01
    }
  }
}
layer {
  name: "bn3a_branch1"
  type: "BatchNorm"
  bottom: "res3a_branch1"
  top: "res3a_branch1"
  batch_norm_param {
    moving_average_fraction: 0.999
    eps: 0.001
  }
}
layer {
  name: "scale3a_branch1"
  type: "Scale"
  bottom: "res3a_branch1"
  top: "res3a_branch1"
  param {
    lr_mult: 1
    decay_mult: 0
  }
  param {
    lr_mult: 1
    decay_mult: 0
  }
  scale_param {
    filler {
      type: "constant"
      value: 1
    }
    bias_term: true
    bias_filler {
      type: "constant"
      value: 0
    }
  }
}
layer {
  name: "res3a_branch2a"
  type: "Convolution"
  bottom: "res2c"
  top: "res3a_branch2a"
  param {
    lr_mult: 1
    decay_mult: 1
  }
  convolution_param {
    num_output: 128
    bias_term: false
    pad: 0
    kernel_size: 1
    stride: 2
    weight_filler {
      type: "gaussian"
      std: 0.01
    }
  }
}
layer {
  name: "bn3a_branch2a"
  type: "BatchNorm"
  bottom: "res3a_branch2a"
  top: "res3a_branch2a"
  batch_norm_param {
    moving_average_fraction: 0.999
    eps: 0.001
  }
}
layer {
  name: "scale3a_branch2a"
  type: "Scale"
  bottom: "res3a_branch2a"
  top: "res3a_branch2a"
  param {
    lr_mult: 1
    decay_mult: 0
  }
  param {
    lr_mult: 1
    decay_mult: 0
  }
  scale_param {
    filler {
      type: "constant"
      value: 1
    }
    bias_term: true
    bias_filler {
      type: "constant"
      value: 0
    }
  }
}
layer {
  name: "res3a_branch2a_relu"
  type: "ReLU"
  bottom: "res3a_branch2a"
  top: "res3a_branch2a"
}
layer {
  name: "res3a_branch2b"
  type: "Convolution"
  bottom: "res3a_branch2a"
  top: "res3a_branch2b"
  param {
    lr_mult: 1
    decay_mult: 1
  }
  convolution_param {
    num_output: 128
    bias_term: false
    pad: 1
    kernel_size: 3
    stride: 1
    weight_filler {
      type: "gaussian"
      std: 0.01
    }
  }
}
layer {
  name: "bn3a_branch2b"
  type: "BatchNorm"
  bottom: "res3a_branch2b"
  top: "res3a_branch2b"
  batch_norm_param {
    moving_average_fraction: 0.999
    eps: 0.001
  }
}
layer {
  name: "scale3a_branch2b"
  type: "Scale"
  bottom: "res3a_branch2b"
  top: "res3a_branch2b"
  param {
    lr_mult: 1
    decay_mult: 0
  }
  param {
    lr_mult: 1
    decay_mult: 0
  }
  scale_param {
    filler {
      type: "constant"
      value: 1
    }
    bias_term: true
    bias_filler {
      type: "constant"
      value: 0
    }
  }
}
layer {
  name: "res3a_branch2b_relu"
  type: "ReLU"
  bottom: "res3a_branch2b"
  top: "res3a_branch2b"
}
layer {
  name: "res3a_branch2c"
  type: "Convolution"
  bottom: "res3a_branch2b"
  top: "res3a_branch2c"
  param {
    lr_mult: 1
    decay_mult: 1
  }
  convolution_param {
    num_output: 512
    bias_term: false
    pad: 0
    kernel_size: 1
    stride: 1
    weight_filler {
      type: "gaussian"
      std: 0.01
    }
  }
}
layer {
  name: "bn3a_branch2c"
  type: "BatchNorm"
  bottom: "res3a_branch2c"
  top: "res3a_branch2c"
  batch_norm_param {
    moving_average_fraction: 0.999
    eps: 0.001
  }
}
layer {
  name: "scale3a_branch2c"
  type: "Scale"
  bottom: "res3a_branch2c"
  top: "res3a_branch2c"
  param {
    lr_mult: 1
    decay_mult: 0
  }
  param {
    lr_mult: 1
    decay_mult: 0
  }
  scale_param {
    filler {
      type: "constant"
      value: 1
    }
    bias_term: true
    bias_filler {
      type: "constant"
      value: 0
    }
  }
}
layer {
  name: "res3a"
  type: "Eltwise"
  bottom: "res3a_branch1"
  bottom: "res3a_branch2c"
  top: "res3a"
}
layer {
  name: "res3a_relu"
  type: "ReLU"
  bottom: "res3a"
  top: "res3a"
}
layer {
  name: "res3b1_branch2a"
  type: "Convolution"
  bottom: "res3a"
  top: "res3b1_branch2a"
  param {
    lr_mult: 1
    decay_mult: 1
  }
  convolution_param {
    num_output: 128
    bias_term: false
    pad: 0
    kernel_size: 1
    stride: 1
    weight_filler {
      type: "gaussian"
      std: 0.01
    }
  }
}
layer {
  name: "bn3b1_branch2a"
  type: "BatchNorm"
  bottom: "res3b1_branch2a"
  top: "res3b1_branch2a"
  batch_norm_param {
    moving_average_fraction: 0.999
    eps: 0.001
  }
}
layer {
  name: "scale3b1_branch2a"
  type: "Scale"
  bottom: "res3b1_branch2a"
  top: "res3b1_branch2a"
  param {
    lr_mult: 1
    decay_mult: 0
  }
  param {
    lr_mult: 1
    decay_mult: 0
  }
  scale_param {
    filler {
      type: "constant"
      value: 1
    }
    bias_term: true
    bias_filler {
      type: "constant"
      value: 0
    }
  }
}
layer {
  name: "res3b1_branch2a_relu"
  type: "ReLU"
  bottom: "res3b1_branch2a"
  top: "res3b1_branch2a"
}
layer {
  name: "res3b1_branch2b"
  type: "Convolution"
  bottom: "res3b1_branch2a"
  top: "res3b1_branch2b"
  param {
    lr_mult: 1
    decay_mult: 1
  }
  convolution_param {
    num_output: 128
    bias_term: false
    pad: 1
    kernel_size: 3
    stride: 1
    weight_filler {
      type: "gaussian"
      std: 0.01
    }
  }
}
layer {
  name: "bn3b1_branch2b"
  type: "BatchNorm"
  bottom: "res3b1_branch2b"
  top: "res3b1_branch2b"
  batch_norm_param {
    moving_average_fraction: 0.999
    eps: 0.001
  }
}
layer {
  name: "scale3b1_branch2b"
  type: "Scale"
  bottom: "res3b1_branch2b"
  top: "res3b1_branch2b"
  param {
    lr_mult: 1
    decay_mult: 0
  }
  param {
    lr_mult: 1
    decay_mult: 0
  }
  scale_param {
    filler {
      type: "constant"
      value: 1
    }
    bias_term: true
    bias_filler {
      type: "constant"
      value: 0
    }
  }
}
layer {
  name: "res3b1_branch2b_relu"
  type: "ReLU"
  bottom: "res3b1_branch2b"
  top: "res3b1_branch2b"
}
layer {
  name: "res3b1_branch2c"
  type: "Convolution"
  bottom: "res3b1_branch2b"
  top: "res3b1_branch2c"
  param {
    lr_mult: 1
    decay_mult: 1
  }
  convolution_param {
    num_output: 512
    bias_term: false
    pad: 0
    kernel_size: 1
    stride: 1
    weight_filler {
      type: "gaussian"
      std: 0.01
    }
  }
}
layer {
  name: "bn3b1_branch2c"
  type: "BatchNorm"
  bottom: "res3b1_branch2c"
  top: "res3b1_branch2c"
  batch_norm_param {
    moving_average_fraction: 0.999
    eps: 0.001
  }
}
layer {
  name: "scale3b1_branch2c"
  type: "Scale"
  bottom: "res3b1_branch2c"
  top: "res3b1_branch2c"
  param {
    lr_mult: 1
    decay_mult: 0
  }
  param {
    lr_mult: 1
    decay_mult: 0
  }
  scale_param {
    filler {
      type: "constant"
      value: 1
    }
    bias_term: true
    bias_filler {
      type: "constant"
      value: 0
    }
  }
}
layer {
  name: "res3b1"
  type: "Eltwise"
  bottom: "res3a"
  bottom: "res3b1_branch2c"
  top: "res3b1"
}
layer {
  name: "res3b1_relu"
  type: "ReLU"
  bottom: "res3b1"
  top: "res3b1"
}
layer {
  name: "res3b2_branch2a"
  type: "Convolution"
  bottom: "res3b1"
  top: "res3b2_branch2a"
  param {
    lr_mult: 1
    decay_mult: 1
  }
  convolution_param {
    num_output: 128
    bias_term: false
    pad: 0
    kernel_size: 1
    stride: 1
    weight_filler {
      type: "gaussian"
      std: 0.01
    }
  }
}
layer {
  name: "bn3b2_branch2a"
  type: "BatchNorm"
  bottom: "res3b2_branch2a"
  top: "res3b2_branch2a"
  batch_norm_param {
    moving_average_fraction: 0.999
    eps: 0.001
  }
}
layer {
  name: "scale3b2_branch2a"
  type: "Scale"
  bottom: "res3b2_branch2a"
  top: "res3b2_branch2a"
  param {
    lr_mult: 1
    decay_mult: 0
  }
  param {
    lr_mult: 1
    decay_mult: 0
  }
  scale_param {
    filler {
      type: "constant"
      value: 1
    }
    bias_term: true
    bias_filler {
      type: "constant"
      value: 0
    }
  }
}
layer {
  name: "res3b2_branch2a_relu"
  type: "ReLU"
  bottom: "res3b2_branch2a"
  top: "res3b2_branch2a"
}
layer {
  name: "res3b2_branch2b"
  type: "Convolution"
  bottom: "res3b2_branch2a"
  top: "res3b2_branch2b"
  param {
    lr_mult: 1
    decay_mult: 1
  }
  convolution_param {
    num_output: 128
    bias_term: false
    pad: 1
    kernel_size: 3
    stride: 1
    weight_filler {
      type: "gaussian"
      std: 0.01
    }
  }
}
layer {
  name: "bn3b2_branch2b"
  type: "BatchNorm"
  bottom: "res3b2_branch2b"
  top: "res3b2_branch2b"
  batch_norm_param {
    moving_average_fraction: 0.999
    eps: 0.001
  }
}
layer {
  name: "scale3b2_branch2b"
  type: "Scale"
  bottom: "res3b2_branch2b"
  top: "res3b2_branch2b"
  param {
    lr_mult: 1
    decay_mult: 0
  }
  param {
    lr_mult: 1
    decay_mult: 0
  }
  scale_param {
    filler {
      type: "constant"
      value: 1
    }
    bias_term: true
    bias_filler {
      type: "constant"
      value: 0
    }
  }
}
layer {
  name: "res3b2_branch2b_relu"
  type: "ReLU"
  bottom: "res3b2_branch2b"
  top: "res3b2_branch2b"
}
layer {
  name: "res3b2_branch2c"
  type: "Convolution"
  bottom: "res3b2_branch2b"
  top: "res3b2_branch2c"
  param {
    lr_mult: 1
    decay_mult: 1
  }
  convolution_param {
    num_output: 512
    bias_term: false
    pad: 0
    kernel_size: 1
    stride: 1
    weight_filler {
      type: "gaussian"
      std: 0.01
    }
  }
}
layer {
  name: "bn3b2_branch2c"
  type: "BatchNorm"
  bottom: "res3b2_branch2c"
  top: "res3b2_branch2c"
  batch_norm_param {
    moving_average_fraction: 0.999
    eps: 0.001
  }
}
layer {
  name: "scale3b2_branch2c"
  type: "Scale"
  bottom: "res3b2_branch2c"
  top: "res3b2_branch2c"
  param {
    lr_mult: 1
    decay_mult: 0
  }
  param {
    lr_mult: 1
    decay_mult: 0
  }
  scale_param {
    filler {
      type: "constant"
      value: 1
    }
    bias_term: true
    bias_filler {
      type: "constant"
      value: 0
    }
  }
}
layer {
  name: "res3b2"
  type: "Eltwise"
  bottom: "res3b1"
  bottom: "res3b2_branch2c"
  top: "res3b2"
}
layer {
  name: "res3b2_relu"
  type: "ReLU"
  bottom: "res3b2"
  top: "res3b2"
}
layer {
  name: "res3b3_branch2a"
  type: "Convolution"
  bottom: "res3b2"
  top: "res3b3_branch2a"
  param {
    lr_mult: 1
    decay_mult: 1
  }
  convolution_param {
    num_output: 128
    bias_term: false
    pad: 0
    kernel_size: 1
    stride: 1
    weight_filler {
      type: "gaussian"
      std: 0.01
    }
  }
}
layer {
  name: "bn3b3_branch2a"
  type: "BatchNorm"
  bottom: "res3b3_branch2a"
  top: "res3b3_branch2a"
  batch_norm_param {
    moving_average_fraction: 0.999
    eps: 0.001
  }
}
layer {
  name: "scale3b3_branch2a"
  type: "Scale"
  bottom: "res3b3_branch2a"
  top: "res3b3_branch2a"
  param {
    lr_mult: 1
    decay_mult: 0
  }
  param {
    lr_mult: 1
    decay_mult: 0
  }
  scale_param {
    filler {
      type: "constant"
      value: 1
    }
    bias_term: true
    bias_filler {
      type: "constant"
      value: 0
    }
  }
}
layer {
  name: "res3b3_branch2a_relu"
  type: "ReLU"
  bottom: "res3b3_branch2a"
  top: "res3b3_branch2a"
}
layer {
  name: "res3b3_branch2b"
  type: "Convolution"
  bottom: "res3b3_branch2a"
  top: "res3b3_branch2b"
  param {
    lr_mult: 1
    decay_mult: 1
  }
  convolution_param {
    num_output: 128
    bias_term: false
    pad: 1
    kernel_size: 3
    stride: 1
    weight_filler {
      type: "gaussian"
      std: 0.01
    }
  }
}
layer {
  name: "bn3b3_branch2b"
  type: "BatchNorm"
  bottom: "res3b3_branch2b"
  top: "res3b3_branch2b"
  batch_norm_param {
    moving_average_fraction: 0.999
    eps: 0.001
  }
}
layer {
  name: "scale3b3_branch2b"
  type: "Scale"
  bottom: "res3b3_branch2b"
  top: "res3b3_branch2b"
  param {
    lr_mult: 1
    decay_mult: 0
  }
  param {
    lr_mult: 1
    decay_mult: 0
  }
  scale_param {
    filler {
      type: "constant"
      value: 1
    }
    bias_term: true
    bias_filler {
      type: "constant"
      value: 0
    }
  }
}
layer {
  name: "res3b3_branch2b_relu"
  type: "ReLU"
  bottom: "res3b3_branch2b"
  top: "res3b3_branch2b"
}
layer {
  name: "res3b3_branch2c"
  type: "Convolution"
  bottom: "res3b3_branch2b"
  top: "res3b3_branch2c"
  param {
    lr_mult: 1
    decay_mult: 1
  }
  convolution_param {
    num_output: 512
    bias_term: false
    pad: 0
    kernel_size: 1
    stride: 1
    weight_filler {
      type: "gaussian"
      std: 0.01
    }
  }
}
layer {
  name: "bn3b3_branch2c"
  type: "BatchNorm"
  bottom: "res3b3_branch2c"
  top: "res3b3_branch2c"
  batch_norm_param {
    moving_average_fraction: 0.999
    eps: 0.001
  }
}
layer {
  name: "scale3b3_branch2c"
  type: "Scale"
  bottom: "res3b3_branch2c"
  top: "res3b3_branch2c"
  param {
    lr_mult: 1
    decay_mult: 0
  }
  param {
    lr_mult: 1
    decay_mult: 0
  }
  scale_param {
    filler {
      type: "constant"
      value: 1
    }
    bias_term: true
    bias_filler {
      type: "constant"
      value: 0
    }
  }
}
layer {
  name: "res3b3"
  type: "Eltwise"
  bottom: "res3b2"
  bottom: "res3b3_branch2c"
  top: "res3b3"
}
layer {
  name: "res3b3_relu"
  type: "ReLU"
  bottom: "res3b3"
  top: "res3b3"
}
layer {
  name: "res4a_branch1"
  type: "Convolution"
  bottom: "res3b3"
  top: "res4a_branch1"
  param {
    lr_mult: 1
    decay_mult: 1
  }
  convolution_param {
    num_output: 1024
    bias_term: false
    pad: 0
    kernel_size: 1
    stride: 2
    weight_filler {
      type: "gaussian"
      std: 0.01
    }
  }
}
layer {
  name: "bn4a_branch1"
  type: "BatchNorm"
  bottom: "res4a_branch1"
  top: "res4a_branch1"
  batch_norm_param {
    moving_average_fraction: 0.999
    eps: 0.001
  }
}
layer {
  name: "scale4a_branch1"
  type: "Scale"
  bottom: "res4a_branch1"
  top: "res4a_branch1"
  param {
    lr_mult: 1
    decay_mult: 0
  }
  param {
    lr_mult: 1
    decay_mult: 0
  }
  scale_param {
    filler {
      type: "constant"
      value: 1
    }
    bias_term: true
    bias_filler {
      type: "constant"
      value: 0
    }
  }
}
layer {
  name: "res4a_branch2a"
  type: "Convolution"
  bottom: "res3b3"
  top: "res4a_branch2a"
  param {
    lr_mult: 1
    decay_mult: 1
  }
  convolution_param {
    num_output: 256
    bias_term: false
    pad: 0
    kernel_size: 1
    stride: 2
    weight_filler {
      type: "gaussian"
      std: 0.01
    }
  }
}
layer {
  name: "bn4a_branch2a"
  type: "BatchNorm"
  bottom: "res4a_branch2a"
  top: "res4a_branch2a"
  batch_norm_param {
    moving_average_fraction: 0.999
    eps: 0.001
  }
}
layer {
  name: "scale4a_branch2a"
  type: "Scale"
  bottom: "res4a_branch2a"
  top: "res4a_branch2a"
  param {
    lr_mult: 1
    decay_mult: 0
  }
  param {
    lr_mult: 1
    decay_mult: 0
  }
  scale_param {
    filler {
      type: "constant"
      value: 1
    }
    bias_term: true
    bias_filler {
      type: "constant"
      value: 0
    }
  }
}
layer {
  name: "res4a_branch2a_relu"
  type: "ReLU"
  bottom: "res4a_branch2a"
  top: "res4a_branch2a"
}
layer {
  name: "res4a_branch2b"
  type: "Convolution"
  bottom: "res4a_branch2a"
  top: "res4a_branch2b"
  param {
    lr_mult: 1
    decay_mult: 1
  }
  convolution_param {
    num_output: 256
    bias_term: false
    pad: 1
    kernel_size: 3
    stride: 1
    weight_filler {
      type: "gaussian"
      std: 0.01
    }
  }
}
layer {
  name: "bn4a_branch2b"
  type: "BatchNorm"
  bottom: "res4a_branch2b"
  top: "res4a_branch2b"
  batch_norm_param {
    moving_average_fraction: 0.999
    eps: 0.001
  }
}
layer {
  name: "scale4a_branch2b"
  type: "Scale"
  bottom: "res4a_branch2b"
  top: "res4a_branch2b"
  param {
    lr_mult: 1
    decay_mult: 0
  }
  param {
    lr_mult: 1
    decay_mult: 0
  }
  scale_param {
    filler {
      type: "constant"
      value: 1
    }
    bias_term: true
    bias_filler {
      type: "constant"
      value: 0
    }
  }
}
layer {
  name: "res4a_branch2b_relu"
  type: "ReLU"
  bottom: "res4a_branch2b"
  top: "res4a_branch2b"
}
layer {
  name: "res4a_branch2c"
  type: "Convolution"
  bottom: "res4a_branch2b"
  top: "res4a_branch2c"
  param {
    lr_mult: 1
    decay_mult: 1
  }
  convolution_param {
    num_output: 1024
    bias_term: false
    pad: 0
    kernel_size: 1
    stride: 1
    weight_filler {
      type: "gaussian"
      std: 0.01
    }
  }
}
layer {
  name: "bn4a_branch2c"
  type: "BatchNorm"
  bottom: "res4a_branch2c"
  top: "res4a_branch2c"
  batch_norm_param {
    moving_average_fraction: 0.999
    eps: 0.001
  }
}
layer {
  name: "scale4a_branch2c"
  type: "Scale"
  bottom: "res4a_branch2c"
  top: "res4a_branch2c"
  param {
    lr_mult: 1
    decay_mult: 0
  }
  param {
    lr_mult: 1
    decay_mult: 0
  }
  scale_param {
    filler {
      type: "constant"
      value: 1
    }
    bias_term: true
    bias_filler {
      type: "constant"
      value: 0
    }
  }
}
layer {
  name: "res4a"
  type: "Eltwise"
  bottom: "res4a_branch1"
  bottom: "res4a_branch2c"
  top: "res4a"
}
layer {
  name: "res4a_relu"
  type: "ReLU"
  bottom: "res4a"
  top: "res4a"
}
layer {
  name: "res4b1_branch2a"
  type: "Convolution"
  bottom: "res4a"
  top: "res4b1_branch2a"
  param {
    lr_mult: 1
    decay_mult: 1
  }
  convolution_param {
    num_output: 256
    bias_term: false
    pad: 0
    kernel_size: 1
    stride: 1
    weight_filler {
      type: "gaussian"
      std: 0.01
    }
  }
}
layer {
  name: "bn4b1_branch2a"
  type: "BatchNorm"
  bottom: "res4b1_branch2a"
  top: "res4b1_branch2a"
  batch_norm_param {
    moving_average_fraction: 0.999
    eps: 0.001
  }
}
layer {
  name: "scale4b1_branch2a"
  type: "Scale"
  bottom: "res4b1_branch2a"
  top: "res4b1_branch2a"
  param {
    lr_mult: 1
    decay_mult: 0
  }
  param {
    lr_mult: 1
    decay_mult: 0
  }
  scale_param {
    filler {
      type: "constant"
      value: 1
    }
    bias_term: true
    bias_filler {
      type: "constant"
      value: 0
    }
  }
}
layer {
  name: "res4b1_branch2a_relu"
  type: "ReLU"
  bottom: "res4b1_branch2a"
  top: "res4b1_branch2a"
}
layer {
  name: "res4b1_branch2b"
  type: "Convolution"
  bottom: "res4b1_branch2a"
  top: "res4b1_branch2b"
  param {
    lr_mult: 1
    decay_mult: 1
  }
  convolution_param {
    num_output: 256
    bias_term: false
    pad: 1
    kernel_size: 3
    stride: 1
    weight_filler {
      type: "gaussian"
      std: 0.01
    }
  }
}
layer {
  name: "bn4b1_branch2b"
  type: "BatchNorm"
  bottom: "res4b1_branch2b"
  top: "res4b1_branch2b"
  batch_norm_param {
    moving_average_fraction: 0.999
    eps: 0.001
  }
}
layer {
  name: "scale4b1_branch2b"
  type: "Scale"
  bottom: "res4b1_branch2b"
  top: "res4b1_branch2b"
  param {
    lr_mult: 1
    decay_mult: 0
  }
  param {
    lr_mult: 1
    decay_mult: 0
  }
  scale_param {
    filler {
      type: "constant"
      value: 1
    }
    bias_term: true
    bias_filler {
      type: "constant"
      value: 0
    }
  }
}
layer {
  name: "res4b1_branch2b_relu"
  type: "ReLU"
  bottom: "res4b1_branch2b"
  top: "res4b1_branch2b"
}
layer {
  name: "res4b1_branch2c"
  type: "Convolution"
  bottom: "res4b1_branch2b"
  top:
I0514 15:25:22.619408 12600 layer_factory.hpp:77] Creating layer input
I0514 15:25:22.619419 12600 net.cpp:100] Creating Layer input
I0514 15:25:22.619422 12600 net.cpp:408] input -> data
I0514 15:25:22.631186 12600 net.cpp:150] Setting up input
I0514 15:25:22.631204 12600 net.cpp:157] Top shape: 1 3 300 300 (270000)
I0514 15:25:22.631206 12600 net.cpp:165] Memory required for data: 1080000
I0514 15:25:22.631213 12600 layer_factory.hpp:77] Creating layer data_input_0_split
I0514 15:25:22.631222 12600 net.cpp:100] Creating Layer data_input_0_split
I0514 15:25:22.631225 12600 net.cpp:434] data_input_0_split <- data
I0514 15:25:22.631232 12600 net.cpp:408] data_input_0_split -> data_input_0_split_0
I0514 15:25:22.631239 12600 net.cpp:408] data_input_0_split -> data_input_0_split_1
I0514 15:25:22.631247 12600 net.cpp:408] data_input_0_split -> data_input_0_split_2
I0514 15:25:22.631250 12600 net.cpp:408] data_input_0_split -> data_input_0_split_3
I0514 15:25:22.631256 12600 net.cpp:408] data_input_0_split -> data_input_0_split_4
I0514 15:25:22.631260 12600 net.cpp:408] data_input_0_split -> data_input_0_split_5
I0514 15:25:22.631264 12600 net.cpp:408] data_input_0_split -> data_input_0_split_6
I0514 15:25:22.631316 12600 net.cpp:150] Setting up data_input_0_split
I0514 15:25:22.631321 12600 net.cpp:157] Top shape: 1 3 300 300 (270000)
I0514 15:25:22.631323 12600 net.cpp:157] Top shape: 1 3 300 300 (270000)
I0514 15:25:22.631325 12600 net.cpp:157] Top shape: 1 3 300 300 (270000)
I0514 15:25:22.631327 12600 net.cpp:157] Top shape: 1 3 300 300 (270000)
I0514 15:25:22.631330 12600 net.cpp:157] Top shape: 1 3 300 300 (270000)
I0514 15:25:22.631331 12600 net.cpp:157] Top shape: 1 3 300 300 (270000)
I0514 15:25:22.631333 12600 net.cpp:157] Top shape: 1 3 300 300 (270000)
I0514 15:25:22.631335 12600 net.cpp:165] Memory required for data: 8640000
I0514 15:25:22.631337 12600 layer_factory.hpp:77] Creating layer conv1
I0514 15:25:22.631347 12600 net.cpp:100] Creating Layer conv1
I0514 15:25:22.631358 12600 net.cpp:434] conv1 <- data_input_0_split_0
I0514 15:25:22.631366 12600 net.cpp:408] conv1 -> conv1
I0514 15:25:22.776334 12600 net.cpp:150] Setting up conv1
I0514 15:25:22.776350 12600 net.cpp:157] Top shape: 1 64 150 150 (1440000)
I0514 15:25:22.776352 12600 net.cpp:165] Memory required for data: 14400000
I0514 15:25:22.776366 12600 layer_factory.hpp:77] Creating layer bn_conv1
I0514 15:25:22.776373 12600 net.cpp:100] Creating Layer bn_conv1
I0514 15:25:22.776376 12600 net.cpp:434] bn_conv1 <- conv1
I0514 15:25:22.776379 12600 net.cpp:395] bn_conv1 -> conv1 (in-place)
I0514 15:25:22.776960 12600 net.cpp:150] Setting up bn_conv1
I0514 15:25:22.776968 12600 net.cpp:157] Top shape: 1 64 150 150 (1440000)
I0514 15:25:22.776969 12600 net.cpp:165] Memory required for data: 20160000
I0514 15:25:22.776976 12600 layer_factory.hpp:77] Creating layer scale_conv1
I0514 15:25:22.776983 12600 net.cpp:100] Creating Layer scale_conv1
I0514 15:25:22.776984 12600 net.cpp:434] scale_conv1 <- conv1
I0514 15:25:22.776988 12600 net.cpp:395] scale_conv1 -> conv1 (in-place)
I0514 15:25:22.777012 12600 layer_factory.hpp:77] Creating layer scale_conv1
I0514 15:25:22.777096 12600 net.cpp:150] Setting up scale_conv1
I0514 15:25:22.777101 12600 net.cpp:157] Top shape: 1 64 150 150 (1440000)
I0514 15:25:22.777102 12600 net.cpp:165] Memory required for data: 25920000
I0514 15:25:22.777107 12600 layer_factory.hpp:77] Creating layer conv1_relu
I0514 15:25:22.777109 12600 net.cpp:100] Creating Layer conv1_relu
I0514 15:25:22.777112 12600 net.cpp:434] conv1_relu <- conv1
I0514 15:25:22.777114 12600 net.cpp:395] conv1_relu -> conv1 (in-place)
I0514 15:25:22.777217 12600 net.cpp:150] Setting up conv1_relu
I0514 15:25:22.777222 12600 net.cpp:157] Top shape: 1 64 150 150 (1440000)
I0514 15:25:22.777225 12600 net.cpp:165] Memory required for data: 31680000
I0514 15:25:22.777226 12600 layer_factory.hpp:77] Creating layer pool1
I0514 15:25:22.777230 12600 net.cpp:100] Creating Layer pool1
I0514 15:25:22.777231 12600 net.cpp:434] pool1 <- conv1
I0514 15:25:22.777235 12600 net.cpp:408] pool1 -> pool1
I0514 15:25:22.777261 12600 net.cpp:150] Setting up pool1
I0514 15:25:22.777266 12600 net.cpp:157] Top shape: 1 64 75 75 (360000)
I0514 15:25:22.777267 12600 net.cpp:165] Memory required for data: 33120000
I0514 15:25:22.777269 12600 layer_factory.hpp:77] Creating layer pool1_pool1_0_split
I0514 15:25:22.777272 12600 net.cpp:100] Creating Layer pool1_pool1_0_split
I0514 15:25:22.777273 12600 net.cpp:434] pool1_pool1_0_split <- pool1
I0514 15:25:22.777276 12600 net.cpp:408] pool1_pool1_0_split -> pool1_pool1_0_split_0
I0514 15:25:22.777281 12600 net.cpp:408] pool1_pool1_0_split -> pool1_pool1_0_split_1
I0514 15:25:22.777297 12600 net.cpp:150] Setting up pool1_pool1_0_split
I0514 15:25:22.777300 12600 net.cpp:157] Top shape: 1 64 75 75 (360000)
I0514 15:25:22.777302 12600 net.cpp:157] Top shape: 1 64 75 75 (360000)
I0514 15:25:22.777304 12600 net.cpp:165] Memory required for data: 36000000
I0514 15:25:22.777307 12600 layer_factory.hpp:77] Creating layer res2a_branch1
I0514 15:25:22.777312 12600 net.cpp:100] Creating Layer res2a_branch1
I0514 15:25:22.777314 12600 net.cpp:434] res2a_branch1 <- pool1_pool1_0_split_0
I0514 15:25:22.777318 12600 net.cpp:408] res2a_branch1 -> res2a_branch1
I0514 15:25:22.778431 12600 net.cpp:150] Setting up res2a_branch1
I0514 15:25:22.778439 12600 net.cpp:157] Top shape: 1 256 75 75 (1440000)
I0514 15:25:22.778441 12600 net.cpp:165] Memory required for data: 41760000
I0514 15:25:22.778445 12600 layer_factory.hpp:77] Creating layer bn2a_branch1
I0514 15:25:22.778448 12600 net.cpp:100] Creating Layer bn2a_branch1
I0514 15:25:22.778450 12600 net.cpp:434] bn2a_branch1 <- res2a_branch1
I0514 15:25:22.778453 12600 net.cpp:395] bn2a_branch1 -> res2a_branch1 (in-place)
I0514 15:25:22.778551 12600 net.cpp:150] Setting up bn2a_branch1
I0514 15:25:22.778555 12600 net.cpp:157] Top shape: 1 256 75 75 (1440000)
I0514 15:25:22.778558 12600 net.cpp:165] Memory required for data: 47520000
I0514 15:25:22.778563 12600 layer_factory.hpp:77] Creating layer scale2a_branch1
I0514 15:25:22.778575 12600 net.cpp:100] Creating Layer scale2a_branch1
I0514 15:25:22.778578 12600 net.cpp:434] scale2a_branch1 <- res2a_branch1
I0514 15:25:22.778580 12600 net.cpp:395] scale2a_branch1 -> res2a_branch1 (in-place)
I0514 15:25:22.778600 12600 layer_factory.hpp:77] Creating layer scale2a_branch1
I0514 15:25:22.778663 12600 net.cpp:150] Setting up scale2a_branch1
I0514 15:25:22.778667 12600 net.cpp:157] Top shape: 1 256 75 75 (1440000)
I0514 15:25:22.778668 12600 net.cpp:165] Memory required for data: 53280000
I0514 15:25:22.778671 12600 layer_factory.hpp:77] Creating layer res2a_branch2a
I0514 15:25:22.778676 12600 net.cpp:100] Creating Layer res2a_branch2a
I0514 15:25:22.778678 12600 net.cpp:434] res2a_branch2a <- pool1_pool1_0_split_1
I0514 15:25:22.778681 12600 net.cpp:408] res2a_branch2a -> res2a_branch2a
I0514 15:25:22.780176 12600 net.cpp:150] Setting up res2a_branch2a
I0514 15:25:22.780185 12600 net.cpp:157] Top shape: 1 64 75 75 (360000)
I0514 15:25:22.780187 12600 net.cpp:165] Memory required for data: 54720000
I0514 15:25:22.780190 12600 layer_factory.hpp:77] Creating layer bn2a_branch2a
I0514 15:25:22.780194 12600 net.cpp:100] Creating Layer bn2a_branch2a
I0514 15:25:22.780197 12600 net.cpp:434] bn2a_branch2a <- res2a_branch2a
I0514 15:25:22.780201 12600 net.cpp:395] bn2a_branch2a -> res2a_branch2a (in-place)
I0514 15:25:22.780316 12600 net.cpp:150] Setting up bn2a_branch2a
I0514 15:25:22.780323 12600 net.cpp:157] Top shape: 1 64 75 75 (360000)
I0514 15:25:22.780325 12600 net.cpp:165] Memory required for data: 56160000
I0514 15:25:22.780328 12600 layer_factory.hpp:77] Creating layer scale2a_branch2a
I0514 15:25:22.780333 12600 net.cpp:100] Creating Layer scale2a_branch2a
I0514 15:25:22.780335 12600 net.cpp:434] scale2a_branch2a <- res2a_branch2a
I0514 15:25:22.780339 12600 net.cpp:395] scale2a_branch2a -> res2a_branch2a (in-place)
I0514 15:25:22.780361 12600 layer_factory.hpp:77] Creating layer scale2a_branch2a
I0514 15:25:22.780431 12600 net.cpp:150] Setting up scale2a_branch2a
I0514 15:25:22.780434 12600 net.cpp:157] Top shape: 1 64 75 75 (360000)
I0514 15:25:22.780436 12600 net.cpp:165] Memory required for data: 57600000
I0514 15:25:22.780441 12600 layer_factory.hpp:77] Creating layer res2a_branch2a_relu
I0514 15:25:22.780445 12600 net.cpp:100] Creating Layer res2a_branch2a_relu
I0514 15:25:22.780448 12600 net.cpp:434] res2a_branch2a_relu <- res2a_branch2a
I0514 15:25:22.780452 12600 net.cpp:395] res2a_branch2a_relu -> res2a_branch2a (in-place)
I0514 15:25:22.780551 12600 net.cpp:150] Setting up res2a_branch2a_relu
I0514 15:25:22.780556 12600 net.cpp:157] Top shape: 1 64 75 75 (360000)
I0514 15:25:22.780560 12600 net.cpp:165] Memory required for data: 59040000
I0514 15:25:22.780561 12600 layer_factory.hpp:77] Creating layer res2a_branch2b
I0514 15:25:22.780567 12600 net.cpp:100] Creating Layer res2a_branch2b
I0514 15:25:22.780570 12600 net.cpp:434] res2a_branch2b <- res2a_branch2a
I0514 15:25:22.780573 12600 net.cpp:408] res2a_branch2b -> res2a_branch2b
I0514 15:25:22.781522 12600 net.cpp:150] Setting up res2a_branch2b
I0514 15:25:22.781529 12600 net.cpp:157] Top shape: 1 64 75 75 (360000)
I0514 15:25:22.781533 12600 net.cpp:165] Memory required for data: 60480000
I0514 15:25:22.781535 12600 layer_factory.hpp:77] Creating layer bn2a_branch2b
I0514 15:25:22.781541 12600 net.cpp:100] Creating Layer bn2a_branch2b
I0514 15:25:22.781544 12600 net.cpp:434] bn2a_branch2b <- res2a_branch2b
I0514 15:25:22.781548 12600 net.cpp:395] bn2a_branch2b -> res2a_branch2b (in-place)
I0514 15:25:22.781661 12600 net.cpp:150] Setting up bn2a_branch2b
I0514 15:25:22.781666 12600 net.cpp:157] Top shape: 1 64 75 75 (360000)
I0514 15:25:22.781668 12600 net.cpp:165] Memory required for data: 61920000
I0514 15:25:22.781672 12600 layer_factory.hpp:77] Creating layer scale2a_branch2b
I0514 15:25:22.781677 12600 net.cpp:100] Creating Layer scale2a_branch2b
I0514 15:25:22.781680 12600 net.cpp:434] scale2a_branch2b <- res2a_branch2b
I0514 15:25:22.781682 12600 net.cpp:395] scale2a_branch2b -> res2a_branch2b (in-place)
I0514 15:25:22.781711 12600 layer_factory.hpp:77] Creating layer scale2a_branch2b
I0514 15:25:22.781781 12600 net.cpp:150] Setting up scale2a_branch2b
I0514 15:25:22.781786 12600 net.cpp:157] Top shape: 1 64 75 75 (360000)
I0514 15:25:22.781788 12600 net.cpp:165] Memory required for data: 63360000
I0514 15:25:22.781791 12600 layer_factory.hpp:77] Creating layer res2a_branch2b_relu
I0514 15:25:22.781795 12600 net.cpp:100] Creating Layer res2a_branch2b_relu
I0514 15:25:22.781797 12600 net.cpp:434] res2a_branch2b_relu <- res2a_branch2b
I0514 15:25:22.781800 12600 net.cpp:395] res2a_branch2b_relu -> res2a_branch2b (in-place)
I0514 15:25:22.782212 12600 net.cpp:150] Setting up res2a_branch2b_relu
I0514 15:25:22.782219 12600 net.cpp:157] Top shape: 1 64 75 75 (360000)
I0514 15:25:22.782222 12600 net.cpp:165] Memory required for data: 64800000
I0514 15:25:22.782223 12600 layer_factory.hpp:77] Creating layer res2a_branch2c
I0514 15:25:22.782228 12600 net.cpp:100] Creating Layer res2a_branch2c
I0514 15:25:22.782232 12600 net.cpp:434] res2a_branch2c <- res2a_branch2b
I0514 15:25:22.782236 12600 net.cpp:408] res2a_branch2c -> res2a_branch2c
I0514 15:25:22.782738 12600 net.cpp:150] Setting up res2a_branch2c
I0514 15:25:22.782744 12600 net.cpp:157] Top shape: 1 256 75 75 (1440000)
I0514 15:25:22.782747 12600 net.cpp:165] Memory required for data: 70560000
I0514 15:25:22.782750 12600 layer_factory.hpp:77] Creating layer bn2a_branch2c
I0514 15:25:22.782754 12600 net.cpp:100] Creating Layer bn2a_branch2c
I0514 15:25:22.782757 12600 net.cpp:434] bn2a_branch2c <- res2a_branch2c
I0514 15:25:22.782759 12600 net.cpp:395] bn2a_branch2c -> res2a_branch2c (in-place)
I0514 15:25:22.782862 12600 net.cpp:150] Setting up bn2a_branch2c
I0514 15:25:22.782866 12600 net.cpp:157] Top shape: 1 256 75 75 (1440000)
I0514 15:25:22.782869 12600 net.cpp:165] Memory required for data: 76320000
I0514 15:25:22.782872 12600 layer_factory.hpp:77] Creating layer scale2a_branch2c
I0514 15:25:22.782876 12600 net.cpp:100] Creating Layer scale2a_branch2c
I0514 15:25:22.782879 12600 net.cpp:434] scale2a_branch2c <- res2a_branch2c
I0514 15:25:22.782882 12600 net.cpp:395] scale2a_branch2c -> res2a_branch2c (in-place)
I0514 15:25:22.782905 12600 layer_factory.hpp:77] Creating layer scale2a_branch2c
I0514 15:25:22.782971 12600 net.cpp:150] Setting up scale2a_branch2c
I0514 15:25:22.782975 12600 net.cpp:157] Top shape: 1 256 75 75 (1440000)
I0514 15:25:22.782979 12600 net.cpp:165] Memory required for data: 82080000
I0514 15:25:22.782980 12600 layer_factory.hpp:77] Creating layer res2a
I0514 15:25:22.782984 12600 net.cpp:100] Creating Layer res2a
I0514 15:25:22.782987 12600 net.cpp:434] res2a <- res2a_branch1
I0514 15:25:22.782989 12600 net.cpp:434] res2a <- res2a_branch2c
I0514 15:25:22.782994 12600 net.cpp:408] res2a -> res2a
I0514 15:25:22.783011 12600 net.cpp:150] Setting up res2a
I0514 15:25:22.783015 12600 net.cpp:157] Top shape: 1 256 75 75 (1440000)
I0514 15:25:22.783017 12600 net.cpp:165] Memory required for data: 87840000
I0514 15:25:22.783018 12600 layer_factory.hpp:77] Creating layer res2a_relu
I0514 15:25:22.783021 12600 net.cpp:100] Creating Layer res2a_relu
I0514 15:25:22.783023 12600 net.cpp:434] res2a_relu <- res2a
I0514 15:25:22.783026 12600 net.cpp:395] res2a_relu -> res2a (in-place)
I0514 15:25:22.783435 12600 net.cpp:150] Setting up res2a_relu
I0514 15:25:22.783442 12600 net.cpp:157] Top shape: 1 256 75 75 (1440000)
I0514 15:25:22.783444 12600 net.cpp:165] Memory required for data: 93600000
I0514 15:25:22.783447 12600 layer_factory.hpp:77] Creating layer res2a_res2a_relu_0_split
I0514 15:25:22.783450 12600 net.cpp:100] Creating Layer res2a_res2a_relu_0_split
I0514 15:25:22.783452 12600 net.cpp:434] res2a_res2a_relu_0_split <- res2a
I0514 15:25:22.783457 12600 net.cpp:408] res2a_res2a_relu_0_split -> res2a_res2a_relu_0_split_0
I0514 15:25:22.783460 12600 net.cpp:408] res2a_res2a_relu_0_split -> res2a_res2a_relu_0_split_1
I0514 15:25:22.783483 12600 net.cpp:150] Setting up res2a_res2a_relu_0_split
I0514 15:25:22.783488 12600 net.cpp:157] Top shape: 1 256 75 75 (1440000)
I0514 15:25:22.783496 12600 net.cpp:157] Top shape: 1 256 75 75 (1440000)
I0514 15:25:22.783499 12600 net.cpp:165] Memory required for data: 105120000
I0514 15:25:22.783500 12600 layer_factory.hpp:77] Creating layer res2b_branch2a
I0514 15:25:22.783505 12600 net.cpp:100] Creating Layer res2b_branch2a
I0514 15:25:22.783509 12600 net.cpp:434] res2b_branch2a <- res2a_res2a_relu_0_split_0
I0514 15:25:22.783512 12600 net.cpp:408] res2b_branch2a -> res2b_branch2a
I0514 15:25:22.784338 12600 net.cpp:150] Setting up res2b_branch2a
I0514 15:25:22.784345 12600 net.cpp:157] Top shape: 1 64 75 75 (360000)
I0514 15:25:22.784348 12600 net.cpp:165] Memory required for data: 106560000
I0514 15:25:22.784353 12600 layer_factory.hpp:77] Creating layer bn2b_branch2a
I0514 15:25:22.784355 12600 net.cpp:100] Creating Layer bn2b_branch2a
I0514 15:25:22.784358 12600 net.cpp:434] bn2b_branch2a <- res2b_branch2a
I0514 15:25:22.784361 12600 net.cpp:395] bn2b_branch2a -> res2b_branch2a (in-place)
I0514 15:25:22.784468 12600 net.cpp:150] Setting up bn2b_branch2a
I0514 15:25:22.784472 12600 net.cpp:157] Top shape: 1 64 75 75 (360000)
I0514 15:25:22.784476 12600 net.cpp:165] Memory required for data: 108000000
I0514 15:25:22.784482 12600 layer_factory.hpp:77] Creating layer scale2b_branch2a
I0514 15:25:22.784487 12600 net.cpp:100] Creating Layer scale2b_branch2a
I0514 15:25:22.784488 12600 net.cpp:434] scale2b_branch2a <- res2b_branch2a
I0514 15:25:22.784492 12600 net.cpp:395] scale2b_branch2a -> res2b_branch2a (in-place)
I0514 15:25:22.784517 12600 layer_factory.hpp:77] Creating layer scale2b_branch2a
I0514 15:25:22.784586 12600 net.cpp:150] Setting up scale2b_branch2a
I0514 15:25:22.784591 12600 net.cpp:157] Top shape: 1 64 75 75 (360000)
I0514 15:25:22.784593 12600 net.cpp:165] Memory required for data: 109440000
I0514 15:25:22.784596 12600 layer_factory.hpp:77] Creating layer res2b_branch2a_relu
I0514 15:25:22.784600 12600 net.cpp:100] Creating Layer res2b_branch2a_relu
I0514 15:25:22.784602 12600 net.cpp:434] res2b_branch2a_relu <- res2b_branch2a
I0514 15:25:22.784605 12600 net.cpp:395] res2b_branch2a_relu -> res2b_branch2a (in-place)
I0514 15:25:22.784703 12600 net.cpp:150] Setting up res2b_branch2a_relu
I0514 15:25:22.784709 12600 net.cpp:157] Top shape: 1 64 75 75 (360000)
I0514 15:25:22.784711 12600 net.cpp:165] Memory required for data: 110880000
I0514 15:25:22.784713 12600 layer_factory.hpp:77] Creating layer res2b_branch2b
I0514 15:25:22.784718 12600 net.cpp:100] Creating Layer res2b_branch2b
I0514 15:25:22.784721 12600 net.cpp:434] res2b_branch2b <- res2b_branch2a
I0514 15:25:22.784724 12600 net.cpp:408] res2b_branch2b -> res2b_branch2b
I0514 15:25:22.785706 12600 net.cpp:150] Setting up res2b_branch2b
I0514 15:25:22.785714 12600 net.cpp:157] Top shape: 1 64 75 75 (360000)
I0514 15:25:22.785717 12600 net.cpp:165] Memory required for data: 112320000
I0514 15:25:22.785719 12600 layer_factory.hpp:77] Creating layer bn2b_branch2b
I0514 15:25:22.785723 12600 net.cpp:100] Creating Layer bn2b_branch2b
I0514 15:25:22.785727 12600 net.cpp:434] bn2b_branch2b <- res2b_branch2b
I0514 15:25:22.785729 12600 net.cpp:395] bn2b_branch2b -> res2b_branch2b (in-place)
I0514 15:25:22.785841 12600 net.cpp:150] Setting up bn2b_branch2b
I0514 15:25:22.785845 12600 net.cpp:157] Top shape: 1 64 75 75 (360000)
I0514 15:25:22.785848 12600 net.cpp:165] Memory required for data: 113760000
I0514 15:25:22.785852 12600 layer_factory.hpp:77] Creating layer scale2b_branch2b
I0514 15:25:22.785856 12600 net.cpp:100] Creating Layer scale2b_branch2b
I0514 15:25:22.785859 12600 net.cpp:434] scale2b_branch2b <- res2b_branch2b
I0514 15:25:22.785862 12600 net.cpp:395] scale2b_branch2b -> res2b_branch2b (in-place)
I0514 15:25:22.785884 12600 layer_factory.hpp:77] Creating layer scale2b_branch2b
I0514 15:25:22.785954 12600 net.cpp:150] Setting up scale2b_branch2b
I0514 15:25:22.785959 12600 net.cpp:157] Top shape: 1 64 75 75 (360000)
I0514 15:25:22.785961 12600 net.cpp:165] Memory required for data: 115200000
I0514 15:25:22.785964 12600 layer_factory.hpp:77] Creating layer res2b_branch2b_relu
I0514 15:25:22.785976 12600 net.cpp:100] Creating Layer res2b_branch2b_relu
I0514 15:25:22.785979 12600 net.cpp:434] res2b_branch2b_relu <- res2b_branch2b
I0514 15:25:22.785982 12600 net.cpp:395] res2b_branch2b_relu -> res2b_branch2b (in-place)
I0514 15:25:22.786082 12600 net.cpp:150] Setting up res2b_branch2b_relu
I0514 15:25:22.786087 12600 net.cpp:157] Top shape: 1 64 75 75 (360000)
I0514 15:25:22.786089 12600 net.cpp:165] Memory required for data: 116640000
I0514 15:25:22.786092 12600 layer_factory.hpp:77] Creating layer res2b_branch2c
I0514 15:25:22.786098 12600 net.cpp:100] Creating Layer res2b_branch2c
I0514 15:25:22.786100 12600 net.cpp:434] res2b_branch2c <- res2b_branch2b
I0514 15:25:22.786104 12600 net.cpp:408] res2b_branch2c -> res2b_branch2c
I0514 15:25:22.786933 12600 net.cpp:150] Setting up res2b_branch2c
I0514 15:25:22.786941 12600 net.cpp:157] Top shape: 1 256 75 75 (1440000)
I0514 15:25:22.786942 12600 net.cpp:165] Memory required for data: 122400000
I0514 15:25:22.786945 12600 layer_factory.hpp:77] Creating layer bn2b_branch2c
I0514 15:25:22.786950 12600 net.cpp:100] Creating Layer bn2b_branch2c
I0514 15:25:22.786953 12600 net.cpp:434] bn2b_branch2c <- res2b_branch2c
I0514 15:25:22.786955 12600 net.cpp:395] bn2b_branch2c -> res2b_branch2c (in-place)
I0514 15:25:22.787060 12600 net.cpp:150] Setting up bn2b_branch2c
I0514 15:25:22.787065 12600 net.cpp:157] Top shape: 1 256 75 75 (1440000)
I0514 15:25:22.787067 12600 net.cpp:165] Memory required for data: 128160000
I0514 15:25:22.787071 12600 layer_factory.hpp:77] Creating layer scale2b_branch2c
I0514 15:25:22.787075 12600 net.cpp:100] Creating Layer scale2b_branch2c
I0514 15:25:22.787078 12600 net.cpp:434] scale2b_branch2c <- res2b_branch2c
I0514 15:25:22.787081 12600 net.cpp:395] scale2b_branch2c -> res2b_branch2c (in-place)
I0514 15:25:22.787103 12600 layer_factory.hpp:77] Creating layer scale2b_branch2c
I0514 15:25:22.787168 12600 net.cpp:150] Setting up scale2b_branch2c
I0514 15:25:22.787173 12600 net.cpp:157] Top shape: 1 256 75 75 (1440000)
I0514 15:25:22.787175 12600 net.cpp:165] Memory required for data: 133920000
I0514 15:25:22.787178 12600 layer_factory.hpp:77] Creating layer res2b
I0514 15:25:22.787181 12600 net.cpp:100] Creating Layer res2b
I0514 15:25:22.787184 12600 net.cpp:434] res2b <- res2a_res2a_relu_0_split_1
I0514 15:25:22.787186 12600 net.cpp:434] res2b <- res2b_branch2c
I0514 15:25:22.787191 12600 net.cpp:408] res2b -> res2b
I0514 15:25:22.787204 12600 net.cpp:150] Setting up res2b
I0514 15:25:22.787209 12600 net.cpp:157] Top shape: 1 256 75 75 (1440000)
I0514 15:25:22.787209 12600 net.cpp:165] Memory required for data: 139680000
I0514 15:25:22.787211 12600 layer_factory.hpp:77] Creating layer res2b_relu
I0514 15:25:22.787215 12600 net.cpp:100] Creating Layer res2b_relu
I0514 15:25:22.787219 12600 net.cpp:434] res2b_relu <- res2b
I0514 15:25:22.787220 12600 net.cpp:395] res2b_relu -> res2b (in-place)
I0514 15:25:22.787318 12600 net.cpp:150] Setting up res2b_relu
I0514 15:25:22.787323 12600 net.cpp:157] Top shape: 1 256 75 75 (1440000)
I0514 15:25:22.787325 12600 net.cpp:165] Memory required for data: 145440000
I0514 15:25:22.787328 12600 layer_factory.hpp:77] Creating layer res2b_res2b_relu_0_split
I0514 15:25:22.787331 12600 net.cpp:100] Creating Layer res2b_res2b_relu_0_split
I0514 15:25:22.787333 12600 net.cpp:434] res2b_res2b_relu_0_split <- res2b
I0514 15:25:22.787338 12600 net.cpp:408] res2b_res2b_relu_0_split -> res2b_res2b_relu_0_split_0
I0514 15:25:22.787341 12600 net.cpp:408] res2b_res2b_relu_0_split -> res2b_res2b_relu_0_split_1
I0514 15:25:22.787364 12600 net.cpp:150] Setting up res2b_res2b_relu_0_split
I0514 15:25:22.787366 12600 net.cpp:157] Top shape: 1 256 75 75 (1440000)
I0514 15:25:22.787370 12600 net.cpp:157] Top shape: 1 256 75 75 (1440000)
I0514 15:25:22.787371 12600 net.cpp:165] Memory required for data: 156960000
I0514 15:25:22.787374 12600 layer_factory.hpp:77] Creating layer res2c_branch2a
I0514 15:25:22.787377 12600 net.cpp:100] Creating Layer res2c_branch2a
I0514 15:25:22.787386 12600 net.cpp:434] res2c_branch2a <- res2b_res2b_relu_0_split_0
I0514 15:25:22.787389 12600 net.cpp:408] res2c_branch2a -> res2c_branch2a
I0514 15:25:22.788218 12600 net.cpp:150] Setting up res2c_branch2a
I0514 15:25:22.788228 12600 net.cpp:157] Top shape: 1 64 75 75 (360000)
I0514 15:25:22.788230 12600 net.cpp:165] Memory required for data: 158400000
I0514 15:25:22.788233 12600 layer_factory.hpp:77] Creating layer bn2c_branch2a
I0514 15:25:22.788236 12600 net.cpp:100] Creating Layer bn2c_branch2a
I0514 15:25:22.788239 12600 net.cpp:434] bn2c_branch2a <- res2c_branch2a
I0514 15:25:22.788242 12600 net.cpp:395] bn2c_branch2a -> res2c_branch2a (in-place)
I0514 15:25:22.788348 12600 net.cpp:150] Setting up bn2c_branch2a
I0514 15:25:22.788353 12600 net.cpp:157] Top shape: 1 64 75 75 (360000)
I0514 15:25:22.788355 12600 net.cpp:165] Memory required for data: 159840000
I0514 15:25:22.788359 12600 layer_factory.hpp:77] Creating layer scale2c_branch2a
I0514 15:25:22.788363 12600 net.cpp:100] Creating Layer scale2c_branch2a
I0514 15:25:22.788367 12600 net.cpp:434] scale2c_branch2a <- res2c_branch2a
I0514 15:25:22.788368 12600 net.cpp:395] scale2c_branch2a -> res2c_branch2a (in-place)
I0514 15:25:22.788390 12600 layer_factory.hpp:77] Creating layer scale2c_branch2a
I0514 15:25:22.788461 12600 net.cpp:150] Setting up scale2c_branch2a
I0514 15:25:22.788466 12600 net.cpp:157] Top shape: 1 64 75 75 (360000)
I0514 15:25:22.788468 12600 net.cpp:165] Memory required for data: 161280000
I0514 15:25:22.788472 12600 layer_factory.hpp:77] Creating layer res2c_branch2a_relu
I0514 15:25:22.788475 12600 net.cpp:100] Creating Layer res2c_branch2a_relu
I0514 15:25:22.788477 12600 net.cpp:434] res2c_branch2a_relu <- res2c_branch2a
I0514 15:25:22.788480 12600 net.cpp:395] res2c_branch2a_relu -> res2c_branch2a (in-place)
I0514 15:25:22.788579 12600 net.cpp:150] Setting up res2c_branch2a_relu
I0514 15:25:22.788585 12600 net.cpp:157] Top shape: 1 64 75 75 (360000)
I0514 15:25:22.788588 12600 net.cpp:165] Memory required for data: 162720000
I0514 15:25:22.788589 12600 layer_factory.hpp:77] Creating layer res2c_branch2b
I0514 15:25:22.788594 12600 net.cpp:100] Creating Layer res2c_branch2b
I0514 15:25:22.788597 12600 net.cpp:434] res2c_branch2b <- res2c_branch2a
I0514 15:25:22.788600 12600 net.cpp:408] res2c_branch2b -> res2c_branch2b
I0514 15:25:22.789852 12600 net.cpp:150] Setting up res2c_branch2b
I0514 15:25:22.789860 12600 net.cpp:157] Top shape: 1 64 75 75 (360000)
I0514 15:25:22.789863 12600 net.cpp:165] Memory required for data: 164160000
I0514 15:25:22.789866 12600 layer_factory.hpp:77] Creating layer bn2c_branch2b
I0514 15:25:22.789870 12600 net.cpp:100] Creating Layer bn2c_branch2b
I0514 15:25:22.789872 12600 net.cpp:434] bn2c_branch2b <- res2c_branch2b
I0514 15:25:22.789876 12600 net.cpp:395] bn2c_branch2b -> res2c_branch2b (in-place)
I0514 15:25:22.789990 12600 net.cpp:150] Setting up bn2c_branch2b
I0514 15:25:22.789994 12600 net.cpp:157] Top shape: 1 64 75 75 (360000)
I0514 15:25:22.789997 12600 net.cpp:165] Memory required for data: 165600000
I0514 15:25:22.790000 12600 layer_factory.hpp:77] Creating layer scale2c_branch2b
I0514 15:25:22.790004 12600 net.cpp:100] Creating Layer scale2c_branch2b
I0514 15:25:22.790006 12600 net.cpp:434] scale2c_branch2b <- res2c_branch2b
I0514 15:25:22.790010 12600 net.cpp:395] scale2c_branch2b -> res2c_branch2b (in-place)
I0514 15:25:22.790031 12600 layer_factory.hpp:77] Creating layer scale2c_branch2b
I0514 15:25:22.790103 12600 net.cpp:150] Setting up scale2c_branch2b
I0514 15:25:22.790107 12600 net.cpp:157] Top shape: 1 64 75 75 (360000)
I0514 15:25:22.790110 12600 net.cpp:165] Memory required for data: 167040000
I0514 15:25:22.790113 12600 layer_factory.hpp:77] Creating layer res2c_branch2b_relu
I0514 15:25:22.790117 12600 net.cpp:100] Creating Layer res2c_branch2b_relu
I0514 15:25:22.790119 12600 net.cpp:434] res2c_branch2b_relu <- res2c_branch2b
I0514 15:25:22.790122 12600 net.cpp:395] res2c_branch2b_relu -> res2c_branch2b (in-place)
I0514 15:25:22.790535 12600 net.cpp:150] Setting up res2c_branch2b_relu
I0514 15:25:22.790549 12600 net.cpp:157] Top shape: 1 64 75 75 (360000)
I0514 15:25:22.790551 12600 net.cpp:165] Memory required for data: 168480000
I0514 15:25:22.790554 12600 layer_factory.hpp:77] Creating layer res2c_branch2c
I0514 15:25:22.790558 12600 net.cpp:100] Creating Layer res2c_branch2c
I0514 15:25:22.790561 12600 net.cpp:434] res2c_branch2c <- res2c_branch2b
I0514 15:25:22.790565 12600 net.cpp:408] res2c_branch2c -> res2c_branch2c
I0514 15:25:22.791081 12600 net.cpp:150] Setting up res2c_branch2c
I0514 15:25:22.791087 12600 net.cpp:157] Top shape: 1 256 75 75 (1440000)
I0514 15:25:22.791090 12600 net.cpp:165] Memory required for data: 174240000
I0514 15:25:22.791092 12600 layer_factory.hpp:77] Creating layer bn2c_branch2c
I0514 15:25:22.791096 12600 net.cpp:100] Creating Layer bn2c_branch2c
I0514 15:25:22.791098 12600 net.cpp:434] bn2c_branch2c <- res2c_branch2c
I0514 15:25:22.791101 12600 net.cpp:395] bn2c_branch2c -> res2c_branch2c (in-place)
I0514 15:25:22.791204 12600 net.cpp:150] Setting up bn2c_branch2c
I0514 15:25:22.791209 12600 net.cpp:157] Top shape: 1 256 75 75 (1440000)
I0514 15:25:22.791211 12600 net.cpp:165] Memory required for data: 180000000
I0514 15:25:22.791215 12600 layer_factory.hpp:77] Creating layer scale2c_branch2c
I0514 15:25:22.791219 12600 net.cpp:100] Creating Layer scale2c_branch2c
I0514 15:25:22.791223 12600 net.cpp:434] scale2c_branch2c <- res2c_branch2c
I0514 15:25:22.791225 12600 net.cpp:395] scale2c_branch2c -> res2c_branch2c (in-place)
I0514 15:25:22.791246 12600 layer_factory.hpp:77] Creating layer scale2c_branch2c
I0514 15:25:22.791314 12600 net.cpp:150] Setting up scale2c_branch2c
I0514 15:25:22.791318 12600 net.cpp:157] Top shape: 1 256 75 75 (1440000)
I0514 15:25:22.791321 12600 net.cpp:165] Memory required for data: 185760000
I0514 15:25:22.791328 12600 layer_factory.hpp:77] Creating layer res2c
I0514 15:25:22.791332 12600 net.cpp:100] Creating Layer res2c
I0514 15:25:22.791335 12600 net.cpp:434] res2c <- res2b_res2b_relu_0_split_1
I0514 15:25:22.791337 12600 net.cpp:434] res2c <- res2c_branch2c
I0514 15:25:22.791340 12600 net.cpp:408] res2c -> res2c
I0514 15:25:22.791352 12600 net.cpp:150] Setting up res2c
I0514 15:25:22.791357 12600 net.cpp:157] Top shape: 1 256 75 75 (1440000)
I0514 15:25:22.791358 12600 net.cpp:165] Memory required for data: 191520000
I0514 15:25:22.791359 12600 layer_factory.hpp:77] Creating layer res2c_relu
I0514 15:25:22.791363 12600 net.cpp:100] Creating Layer res2c_relu
I0514 15:25:22.791364 12600 net.cpp:434] res2c_relu <- res2c
I0514 15:25:22.791368 12600 net.cpp:395] res2c_relu -> res2c (in-place)
I0514 15:25:22.791787 12600 net.cpp:150] Setting up res2c_relu
I0514 15:25:22.791795 12600 net.cpp:157] Top shape: 1 256 75 75 (1440000)
I0514 15:25:22.791796 12600 net.cpp:165] Memory required for data: 197280000
I0514 15:25:22.791798 12600 layer_factory.hpp:77] Creating layer res2c_res2c_relu_0_split
I0514 15:25:22.791801 12600 net.cpp:100] Creating Layer res2c_res2c_relu_0_split
I0514 15:25:22.791803 12600 net.cpp:434] res2c_res2c_relu_0_split <- res2c
I0514 15:25:22.791810 12600 net.cpp:408] res2c_res2c_relu_0_split -> res2c_res2c_relu_0_split_0
I0514 15:25:22.791813 12600 net.cpp:408] res2c_res2c_relu_0_split -> res2c_res2c_relu_0_split_1
I0514 15:25:22.791837 12600 net.cpp:150] Setting up res2c_res2c_relu_0_split
I0514 15:25:22.791841 12600 net.cpp:157] Top shape: 1 256 75 75 (1440000)
I0514 15:25:22.791846 12600 net.cpp:157] Top shape: 1 256 75 75 (1440000)
I0514 15:25:22.791846 12600 net.cpp:165] Memory required for data: 208800000
I0514 15:25:22.791848 12600 layer_factory.hpp:77] Creating layer res3a_branch1
I0514 15:25:22.791853 12600 net.cpp:100] Creating Layer res3a_branch1
I0514 15:25:22.791857 12600 net.cpp:434] res3a_branch1 <- res2c_res2c_relu_0_split_0
I0514 15:25:22.791860 12600 net.cpp:408] res3a_branch1 -> res3a_branch1
I0514 15:25:22.793859 12600 net.cpp:150] Setting up res3a_branch1
I0514 15:25:22.793866 12600 net.cpp:157] Top shape: 1 512 38 38 (739328)
I0514 15:25:22.793869 12600 net.cpp:165] Memory required for data: 211757312
I0514 15:25:22.793879 12600 layer_factory.hpp:77] Creating layer bn3a_branch1
I0514 15:25:22.793884 12600 net.cpp:100] Creating Layer bn3a_branch1
I0514 15:25:22.793886 12600 net.cpp:434] bn3a_branch1 <- res3a_branch1
I0514 15:25:22.793890 12600 net.cpp:395] bn3a_branch1 -> res3a_branch1 (in-place)
I0514 15:25:22.794457 12600 net.cpp:150] Setting up bn3a_branch1
I0514 15:25:22.794464 12600 net.cpp:157] Top shape: 1 512 38 38 (739328)
I0514 15:25:22.794466 12600 net.cpp:165] Memory required for data: 214714624
I0514 15:25:22.794471 12600 layer_factory.hpp:77] Creating layer scale3a_branch1
I0514 15:25:22.794476 12600 net.cpp:100] Creating Layer scale3a_branch1
I0514 15:25:22.794479 12600 net.cpp:434] scale3a_branch1 <- res3a_branch1
I0514 15:25:22.794482 12600 net.cpp:395] scale3a_branch1 -> res3a_branch1 (in-place)
I0514 15:25:22.794503 12600 layer_factory.hpp:77] Creating layer scale3a_branch1
I0514 15:25:22.794571 12600 net.cpp:150] Setting up scale3a_branch1
I0514 15:25:22.794576 12600 net.cpp:157] Top shape: 1 512 38 38 (739328)
I0514 15:25:22.794577 12600 net.cpp:165] Memory required for data: 217671936
I0514 15:25:22.794581 12600 layer_factory.hpp:77] Creating layer res3a_branch2a
I0514 15:25:22.794587 12600 net.cpp:100] Creating Layer res3a_branch2a
I0514 15:25:22.794589 12600 net.cpp:434] res3a_branch2a <- res2c_res2c_relu_0_split_1
I0514 15:25:22.794594 12600 net.cpp:408] res3a_branch2a -> res3a_branch2a
I0514 15:25:22.795553 12600 net.cpp:150] Setting up res3a_branch2a
I0514 15:25:22.795562 12600 net.cpp:157] Top shape: 1 128 38 38 (184832)
I0514 15:25:22.795563 12600 net.cpp:165] Memory required for data: 218411264
I0514 15:25:22.795567 12600 layer_factory.hpp:77] Creating layer bn3a_branch2a
I0514 15:25:22.795570 12600 net.cpp:100] Creating Layer bn3a_branch2a
I0514 15:25:22.795573 12600 net.cpp:434] bn3a_branch2a <- res3a_branch2a
I0514 15:25:22.795577 12600 net.cpp:395] bn3a_branch2a -> res3a_branch2a (in-place)
I0514 15:25:22.795693 12600 net.cpp:150] Setting up bn3a_branch2a
I0514 15:25:22.795698 12600 net.cpp:157] Top shape: 1 128 38 38 (184832)
I0514 15:25:22.795699 12600 net.cpp:165] Memory required for data: 219150592
I0514 15:25:22.795703 12600 layer_factory.hpp:77] Creating layer scale3a_branch2a
I0514 15:25:22.795707 12600 net.cpp:100] Creating Layer scale3a_branch2a
I0514 15:25:22.795711 12600 net.cpp:434] scale3a_branch2a <- res3a_branch2a
I0514 15:25:22.795713 12600 net.cpp:395] scale3a_branch2a -> res3a_branch2a (in-place)
I0514 15:25:22.795737 12600 layer_factory.hpp:77] Creating layer scale3a_branch2a
I0514 15:25:22.795801 12600 net.cpp:150] Setting up scale3a_branch2a
I0514 15:25:22.795805 12600 net.cpp:157] Top shape: 1 128 38 38 (184832)
I0514 15:25:22.795807 12600 net.cpp:165] Memory required for data: 219889920
I0514 15:25:22.795810 12600 layer_factory.hpp:77] Creating layer res3a_branch2a_relu
I0514 15:25:22.795814 12600 net.cpp:100] Creating Layer res3a_branch2a_relu
I0514 15:25:22.795815 12600 net.cpp:434] res3a_branch2a_relu <- res3a_branch2a
I0514 15:25:22.795819 12600 net.cpp:395] res3a_branch2a_relu -> res3a_branch2a (in-place)
I0514 15:25:22.795922 12600 net.cpp:150] Setting up res3a_branch2a_relu
I0514 15:25:22.795927 12600 net.cpp:157] Top shape: 1 128 38 38 (184832)
I0514 15:25:22.795929 12600 net.cpp:165] Memory required for data: 220629248
I0514 15:25:22.795931 12600 layer_factory.hpp:77] Creating layer res3a_branch2b
I0514 15:25:22.795936 12600 net.cpp:100] Creating Layer res3a_branch2b
I0514 15:25:22.795938 12600 net.cpp:434] res3a_branch2b <- res3a_branch2a
I0514 15:25:22.795943 12600 net.cpp:408] res3a_branch2b -> res3a_branch2b
I0514 15:25:22.797865 12600 net.cpp:150] Setting up res3a_branch2b
I0514 15:25:22.797873 12600 net.cpp:157] Top shape: 1 128 38 38 (184832)
I0514 15:25:22.797874 12600 net.cpp:165] Memory required for data: 221368576
I0514 15:25:22.797878 12600 layer_factory.hpp:77] Creating layer bn3a_branch2b
I0514 15:25:22.797883 12600 net.cpp:100] Creating Layer bn3a_branch2b
I0514 15:25:22.797886 12600 net.cpp:434] bn3a_branch2b <- res3a_branch2b
I0514 15:25:22.797899 12600 net.cpp:395] bn3a_branch2b -> res3a_branch2b (in-place)
I0514 15:25:22.798012 12600 net.cpp:150] Setting up bn3a_branch2b
I0514 15:25:22.798015 12600 net.cpp:157] Top shape: 1 128 38 38 (184832)
I0514 15:25:22.798017 12600 net.cpp:165] Memory required for data: 222107904
I0514 15:25:22.798022 12600 layer_factory.hpp:77] Creating layer scale3a_branch2b
I0514 15:25:22.798027 12600 net.cpp:100] Creating Layer scale3a_branch2b
I0514 15:25:22.798028 12600 net.cpp:434] scale3a_branch2b <- res3a_branch2b
I0514 15:25:22.798032 12600 net.cpp:395] scale3a_branch2b -> res3a_branch2b (in-place)
I0514 15:25:22.798053 12600 layer_factory.hpp:77] Creating layer scale3a_branch2b
I0514 15:25:22.798118 12600 net.cpp:150] Setting up scale3a_branch2b
I0514 15:25:22.798122 12600 net.cpp:157] Top shape: 1 128 38 38 (184832)
I0514 15:25:22.798125 12600 net.cpp:165] Memory required for data: 222847232
I0514 15:25:22.798127 12600 layer_factory.hpp:77] Creating layer res3a_branch2b_relu
I0514 15:25:22.798131 12600 net.cpp:100] Creating Layer res3a_branch2b_relu
I0514 15:25:22.798135 12600 net.cpp:434] res3a_branch2b_relu <- res3a_branch2b
I0514 15:25:22.798136 12600 net.cpp:395] res3a_branch2b_relu -> res3a_branch2b (in-place)
I0514 15:25:22.798238 12600 net.cpp:150] Setting up res3a_branch2b_relu
I0514 15:25:22.798244 12600 net.cpp:157] Top shape: 1 128 38 38 (184832)
I0514 15:25:22.798246 12600 net.cpp:165] Memory required for data: 223586560
I0514 15:25:22.798249 12600 layer_factory.hpp:77] Creating layer res3a_branch2c
I0514 15:25:22.798259 12600 net.cpp:100] Creating Layer res3a_branch2c
I0514 15:25:22.798262 12600 net.cpp:434] res3a_branch2c <- res3a_branch2b
I0514 15:25:22.798265 12600 net.cpp:408] res3a_branch2c -> res3a_branch2c
I0514 15:25:22.799407 12600 net.cpp:150] Setting up res3a_branch2c
I0514 15:25:22.799415 12600 net.cpp:157] Top shape: 1 512 38 38 (739328)
I0514 15:25:22.799418 12600 net.cpp:165] Memory required for data: 226543872
I0514 15:25:22.799422 12600 layer_factory.hpp:77] Creating layer bn3a_branch2c
I0514 15:25:22.799424 12600 net.cpp:100] Creating Layer bn3a_branch2c
I0514 15:25:22.799427 12600 net.cpp:434] bn3a_branch2c <- res3a_branch2c
I0514 15:25:22.799430 12600 net.cpp:395] bn3a_branch2c -> res3a_branch2c (in-place)
I0514 15:25:22.799545 12600 net.cpp:150] Setting up bn3a_branch2c
I0514 15:25:22.799548 12600 net.cpp:157] Top shape: 1 512 38 38 (739328)
I0514 15:25:22.799551 12600 net.cpp:165] Memory required for data: 229501184
I0514 15:25:22.799554 12600 layer_factory.hpp:77] Creating layer scale3a_branch2c
I0514 15:25:22.799559 12600 net.cpp:100] Creating Layer scale3a_branch2c
I0514 15:25:22.799561 12600 net.cpp:434] scale3a_branch2c <- res3a_branch2c
I0514 15:25:22.799564 12600 net.cpp:395] scale3a_branch2c -> res3a_branch2c (in-place)
I0514 15:25:22.799587 12600 layer_factory.hpp:77] Creating layer scale3a_branch2c
I0514 15:25:22.799661 12600 net.cpp:150] Setting up scale3a_branch2c
I0514 15:25:22.799666 12600 net.cpp:157] Top shape: 1 512 38 38 (739328)
I0514 15:25:22.799669 12600 net.cpp:165] Memory required for data: 232458496
I0514 15:25:22.799671 12600 layer_factory.hpp:77] Creating layer res3a
I0514 15:25:22.799675 12600 net.cpp:100] Creating Layer res3a
I0514 15:25:22.799677 12600 net.cpp:434] res3a <- res3a_branch1
I0514 15:25:22.799680 12600 net.cpp:434] res3a <- res3a_branch2c
I0514 15:25:22.799685 12600 net.cpp:408] res3a -> res3a
I0514 15:25:22.799697 12600 net.cpp:150] Setting up res3a
I0514 15:25:22.799701 12600 net.cpp:157] Top shape: 1 512 38 38 (739328)
I0514 15:25:22.799703 12600 net.cpp:165] Memory required for data: 235415808
I0514 15:25:22.799705 12600 layer_factory.hpp:77] Creating layer res3a_relu
I0514 15:25:22.799710 12600 net.cpp:100] Creating Layer res3a_relu
I0514 15:25:22.799711 12600 net.cpp:434] res3a_relu <- res3a
I0514 15:25:22.799715 12600 net.cpp:395] res3a_relu -> res3a (in-place)
I0514 15:25:22.799821 12600 net.cpp:150] Setting up res3a_relu
I0514 15:25:22.799826 12600 net.cpp:157] Top shape: 1 512 38 38 (739328)
I0514 15:25:22.799835 12600 net.cpp:165] Memory required for data: 238373120
I0514 15:25:22.799837 12600 layer_factory.hpp:77] Creating layer res3a_res3a_relu_0_split
I0514 15:25:22.799841 12600 net.cpp:100] Creating Layer res3a_res3a_relu_0_split
I0514 15:25:22.799844 12600 net.cpp:434] res3a_res3a_relu_0_split <- res3a
I0514 15:25:22.799847 12600 net.cpp:408] res3a_res3a_relu_0_split -> res3a_res3a_relu_0_split_0
I0514 15:25:22.799852 12600 net.cpp:408] res3a_res3a_relu_0_split -> res3a_res3a_relu_0_split_1
I0514 15:25:22.799875 12600 net.cpp:150] Setting up res3a_res3a_relu_0_split
I0514 15:25:22.799880 12600 net.cpp:157] Top shape: 1 512 38 38 (739328)
I0514 15:25:22.799883 12600 net.cpp:157] Top shape: 1 512 38 38 (739328)
I0514 15:25:22.799885 12600 net.cpp:165] Memory required for data: 244287744
I0514 15:25:22.799886 12600 layer_factory.hpp:77] Creating layer res3b1_branch2a
I0514 15:25:22.799890 12600 net.cpp:100] Creating Layer res3b1_branch2a
I0514 15:25:22.799893 12600 net.cpp:434] res3b1_branch2a <- res3a_res3a_relu_0_split_0
I0514 15:25:22.799896 12600 net.cpp:408] res3b1_branch2a -> res3b1_branch2a
I0514 15:25:22.801337 12600 net.cpp:150] Setting up res3b1_branch2a
I0514 15:25:22.801345 12600 net.cpp:157] Top shape: 1 128 38 38 (184832)
I0514 15:25:22.801347 12600 net.cpp:165] Memory required for data: 245027072
I0514 15:25:22.801350 12600 layer_factory.hpp:77] Creating layer bn3b1_branch2a
I0514 15:25:22.801355 12600 net.cpp:100] Creating Layer bn3b1_branch2a
I0514 15:25:22.801357 12600 net.cpp:434] bn3b1_branch2a <- res3b1_branch2a
I0514 15:25:22.801360 12600 net.cpp:395] bn3b1_branch2a -> res3b1_branch2a (in-place)
I0514 15:25:22.801477 12600 net.cpp:150] Setting up bn3b1_branch2a
I0514 15:25:22.801481 12600 net.cpp:157] Top shape: 1 128 38 38 (184832)
I0514 15:25:22.801484 12600 net.cpp:165] Memory required for data: 245766400
I0514 15:25:22.801487 12600 layer_factory.hpp:77] Creating layer scale3b1_branch2a
I0514 15:25:22.801491 12600 net.cpp:100] Creating Layer scale3b1_branch2a
I0514 15:25:22.801494 12600 net.cpp:434] scale3b1_branch2a <- res3b1_branch2a
I0514 15:25:22.801497 12600 net.cpp:395] scale3b1_branch2a -> res3b1_branch2a (in-place)
I0514 15:25:22.801520 12600 layer_factory.hpp:77] Creating layer scale3b1_branch2a
I0514 15:25:22.801589 12600 net.cpp:150] Setting up scale3b1_branch2a
I0514 15:25:22.801594 12600 net.cpp:157] Top shape: 1 128 38 38 (184832)
I0514 15:25:22.801597 12600 net.cpp:165] Memory required for data: 246505728
I0514 15:25:22.801600 12600 layer_factory.hpp:77] Creating layer res3b1_branch2a_relu
I0514 15:25:22.801602 12600 net.cpp:100] Creating Layer res3b1_branch2a_relu
I0514 15:25:22.801605 12600 net.cpp:434] res3b1_branch2a_relu <- res3b1_branch2a
I0514 15:25:22.801609 12600 net.cpp:395] res3b1_branch2a_relu -> res3b1_branch2a (in-place)
I0514 15:25:22.801712 12600 net.cpp:150] Setting up res3b1_branch2a_relu
I0514 15:25:22.801717 12600 net.cpp:157] Top shape: 1 128 38 38 (184832)
I0514 15:25:22.801719 12600 net.cpp:165] Memory required for data: 247245056
I0514 15:25:22.801722 12600 layer_factory.hpp:77] Creating layer res3b1_branch2b
I0514 15:25:22.801725 12600 net.cpp:100] Creating Layer res3b1_branch2b
I0514 15:25:22.801728 12600 net.cpp:434] res3b1_branch2b <- res3b1_branch2a
I0514 15:25:22.801733 12600 net.cpp:408] res3b1_branch2b -> res3b1_branch2b
I0514 15:25:22.803678 12600 net.cpp:150] Setting up res3b1_branch2b
I0514 15:25:22.803686 12600 net.cpp:157] Top shape: 1 128 38 38 (184832)
I0514 15:25:22.803689 12600 net.cpp:165] Memory required for data: 247984384
I0514 15:25:22.803691 12600 layer_factory.hpp:77] Creating layer bn3b1_branch2b
I0514 15:25:22.803695 12600 net.cpp:100] Creating Layer bn3b1_branch2b
I0514 15:25:22.803699 12600 net.cpp:434] bn3b1_branch2b <- res3b1_branch2b
I0514 15:25:22.803701 12600 net.cpp:395] bn3b1_branch2b -> res3b1_branch2b (in-place)
I0514 15:25:22.803818 12600 net.cpp:150] Setting up bn3b1_branch2b
I0514 15:25:22.803823 12600 net.cpp:157] Top shape: 1 128 38 38 (184832)
I0514 15:25:22.803824 12600 net.cpp:165] Memory required for data: 248723712
I0514 15:25:22.803834 12600 layer_factory.hpp:77] Creating layer scale3b1_branch2b
I0514 15:25:22.803839 12600 net.cpp:100] Creating Layer scale3b1_branch2b
I0514 15:25:22.803843 12600 net.cpp:434] scale3b1_branch2b <- res3b1_branch2b
I0514 15:25:22.803844 12600 net.cpp:395] scale3b1_branch2b -> res3b1_branch2b (in-place)
I0514 15:25:22.803869 12600 layer_factory.hpp:77] Creating layer scale3b1_branch2b
I0514 15:25:22.803936 12600 net.cpp:150] Setting up scale3b1_branch2b
I0514 15:25:22.803942 12600 net.cpp:157] Top shape: 1 128 38 38 (184832)
I0514 15:25:22.803944 12600 net.cpp:165] Memory required for data: 249463040
I0514 15:25:22.803947 12600 layer_factory.hpp:77] Creating layer res3b1_branch2b_relu
I0514 15:25:22.803951 12600 net.cpp:100] Creating Layer res3b1_branch2b_relu
I0514 15:25:22.803952 12600 net.cpp:434] res3b1_branch2b_relu <- res3b1_branch2b
I0514 15:25:22.803954 12600 net.cpp:395] res3b1_branch2b_relu -> res3b1_branch2b (in-place)
I0514 15:25:22.804057 12600 net.cpp:150] Setting up res3b1_branch2b_relu
I0514 15:25:22.804064 12600 net.cpp:157] Top shape: 1 128 38 38 (184832)
I0514 15:25:22.804066 12600 net.cpp:165] Memory required for data: 250202368
I0514 15:25:22.804069 12600 layer_factory.hpp:77] Creating layer res3b1_branch2c
I0514 15:25:22.804072 12600 net.cpp:100] Creating Layer res3b1_branch2c
I0514 15:25:22.804075 12600 net.cpp:434] res3b1_branch2c <- res3b1_branch2b
I0514 15:25:22.804080 12600 net.cpp:408] res3b1_branch2c -> res3b1_branch2c
I0514 15:25:22.805220 12600 net.cpp:150] Setting up res3b1_branch2c
I0514 15:25:22.805227 12600 net.cpp:157] Top shape: 1 512 38 38 (739328)
I0514 15:25:22.805230 12600 net.cpp:165] Memory required for data: 253159680
I0514 15:25:22.805233 12600 layer_factory.hpp:77] Creating layer bn3b1_branch2c
I0514 15:25:22.805238 12600 net.cpp:100] Creating Layer bn3b1_branch2c
I0514 15:25:22.805240 12600 net.cpp:434] bn3b1_branch2c <- res3b1_branch2c
I0514 15:25:22.805244 12600 net.cpp:395] bn3b1_branch2c -> res3b1_branch2c (in-place)
I0514 15:25:22.805361 12600 net.cpp:150] Setting up bn3b1_branch2c
I0514 15:25:22.805364 12600 net.cpp:157] Top shape: 1 512 38 38 (739328)
I0514 15:25:22.805366 12600 net.cpp:165] Memory required for data: 256116992
I0514 15:25:22.805371 12600 layer_factory.hpp:77] Creating layer scale3b1_branch2c
I0514 15:25:22.805374 12600 net.cpp:100] Creating Layer scale3b1_branch2c
I0514 15:25:22.805377 12600 net.cpp:434] scale3b1_branch2c <- res3b1_branch2c
I0514 15:25:22.805379 12600 net.cpp:395] scale3b1_branch2c -> res3b1_branch2c (in-place)
I0514 15:25:22.805400 12600 layer_factory.hpp:77] Creating layer scale3b1_branch2c
I0514 15:25:22.805469 12600 net.cpp:150] Setting up scale3b1_branch2c
I0514 15:25:22.805474 12600 net.cpp:157] Top shape: 1 512 38 38 (739328)
I0514 15:25:22.805475 12600 net.cpp:165] Memory required for data: 259074304
I0514 15:25:22.805480 12600 layer_factory.hpp:77] Creating layer res3b1
I0514 15:25:22.805483 12600 net.cpp:100] Creating Layer res3b1
I0514 15:25:22.805485 12600 net.cpp:434] res3b1 <- res3a_res3a_relu_0_split_1
I0514 15:25:22.805488 12600 net.cpp:434] res3b1 <- res3b1_branch2c
I0514 15:25:22.805491 12600 net.cpp:408] res3b1 -> res3b1
I0514 15:25:22.805506 12600 net.cpp:150] Setting up res3b1
I0514 15:25:22.805510 12600 net.cpp:157] Top shape: 1 512 38 38 (739328)
I0514 15:25:22.805512 12600 net.cpp:165] Memory required for data: 262031616
I0514 15:25:22.805515 12600 layer_factory.hpp:77] Creating layer res3b1_relu
I0514 15:25:22.805516 12600 net.cpp:100] Creating Layer res3b1_relu
I0514 15:25:22.805518 12600 net.cpp:434] res3b1_relu <- res3b1
I0514 15:25:22.805521 12600 net.cpp:395] res3b1_relu -> res3b1 (in-place)
I0514 15:25:22.805938 12600 net.cpp:150] Setting up res3b1_relu
I0514 15:25:22.805944 12600 net.cpp:157] Top shape: 1 512 38 38 (739328)
I0514 15:25:22.805948 12600 net.cpp:165] Memory required for data: 264988928
I0514 15:25:22.805949 12600 layer_factory.hpp:77] Creating layer res3b1_res3b1_relu_0_split
I0514 15:25:22.805953 12600 net.cpp:100] Creating Layer res3b1_res3b1_relu_0_split
I0514 15:25:22.805961 12600 net.cpp:434] res3b1_res3b1_relu_0_split <- res3b1
I0514 15:25:22.805965 12600 net.cpp:408] res3b1_res3b1_relu_0_split -> res3b1_res3b1_relu_0_split_0
I0514 15:25:22.805969 12600 net.cpp:408] res3b1_res3b1_relu_0_split -> res3b1_res3b1_relu_0_split_1
I0514 15:25:22.805995 12600 net.cpp:150] Setting up res3b1_res3b1_relu_0_split
I0514 15:25:22.805999 12600 net.cpp:157] Top shape: 1 512 38 38 (739328)
I0514 15:25:22.806001 12600 net.cpp:157] Top shape: 1 512 38 38 (739328)
I0514 15:25:22.806002 12600 net.cpp:165] Memory required for data: 270903552
I0514 15:25:22.806005 12600 layer_factory.hpp:77] Creating layer res3b2_branch2a
I0514 15:25:22.806010 12600 net.cpp:100] Creating Layer res3b2_branch2a
I0514 15:25:22.806012 12600 net.cpp:434] res3b2_branch2a <- res3b1_res3b1_relu_0_split_0
I0514 15:25:22.806016 12600 net.cpp:408] res3b2_branch2a -> res3b2_branch2a
I0514 15:25:22.807149 12600 net.cpp:150] Setting up res3b2_branch2a
I0514 15:25:22.807157 12600 net.cpp:157] Top shape: 1 128 38 38 (184832)
I0514 15:25:22.807159 12600 net.cpp:165] Memory required for data: 271642880
I0514 15:25:22.807162 12600 layer_factory.hpp:77] Creating layer bn3b2_branch2a
I0514 15:25:22.807166 12600 net.cpp:100] Creating Layer bn3b2_branch2a
I0514 15:25:22.807168 12600 net.cpp:434] bn3b2_branch2a <- res3b2_branch2a
I0514 15:25:22.807171 12600 net.cpp:395] bn3b2_branch2a -> res3b2_branch2a (in-place)
I0514 15:25:22.807287 12600 net.cpp:150] Setting up bn3b2_branch2a
I0514 15:25:22.807292 12600 net.cpp:157] Top shape: 1 128 38 38 (184832)
I0514 15:25:22.807294 12600 net.cpp:165] Memory required for data: 272382208
I0514 15:25:22.807297 12600 layer_factory.hpp:77] Creating layer scale3b2_branch2a
I0514 15:25:22.807302 12600 net.cpp:100] Creating Layer scale3b2_branch2a
I0514 15:25:22.807306 12600 net.cpp:434] scale3b2_branch2a <- res3b2_branch2a
I0514 15:25:22.807308 12600 net.cpp:395] scale3b2_branch2a -> res3b2_branch2a (in-place)
I0514 15:25:22.807332 12600 layer_factory.hpp:77] Creating layer scale3b2_branch2a
I0514 15:25:22.807399 12600 net.cpp:150] Setting up scale3b2_branch2a
I0514 15:25:22.807404 12600 net.cpp:157] Top shape: 1 128 38 38 (184832)
I0514 15:25:22.807405 12600 net.cpp:165] Memory required for data: 273121536
I0514 15:25:22.807407 12600 layer_factory.hpp:77] Creating layer res3b2_branch2a_relu
I0514 15:25:22.807410 12600 net.cpp:100] Creating Layer res3b2_branch2a_relu
I0514 15:25:22.807413 12600 net.cpp:434] res3b2_branch2a_relu <- res3b2_branch2a
I0514 15:25:22.807416 12600 net.cpp:395] res3b2_branch2a_relu -> res3b2_branch2a (in-place)
I0514 15:25:22.807518 12600 net.cpp:150] Setting up res3b2_branch2a_relu
I0514 15:25:22.807523 12600 net.cpp:157] Top shape: 1 128 38 38 (184832)
I0514 15:25:22.807525 12600 net.cpp:165] Memory required for data: 273860864
I0514 15:25:22.807526 12600 layer_factory.hpp:77] Creating layer res3b2_branch2b
I0514 15:25:22.807533 12600 net.cpp:100] Creating Layer res3b2_branch2b
I0514 15:25:22.807534 12600 net.cpp:434] res3b2_branch2b <- res3b2_branch2a
I0514 15:25:22.807539 12600 net.cpp:408] res3b2_branch2b -> res3b2_branch2b
I0514 15:25:22.809960 12600 net.cpp:150] Setting up res3b2_branch2b
I0514 15:25:22.809967 12600 net.cpp:157] Top shape: 1 128 38 38 (184832)
I0514 15:25:22.809969 12600 net.cpp:165] Memory required for data: 274600192
I0514 15:25:22.809973 12600 layer_factory.hpp:77] Creating layer bn3b2_branch2b
I0514 15:25:22.809978 12600 net.cpp:100] Creating Layer bn3b2_branch2b
I0514 15:25:22.809980 12600 net.cpp:434] bn3b2_branch2b <- res3b2_branch2b
I0514 15:25:22.809983 12600 net.cpp:395] bn3b2_branch2b -> res3b2_branch2b (in-place)
I0514 15:25:22.810104 12600 net.cpp:150] Setting up bn3b2_branch2b
I0514 15:25:22.810109 12600 net.cpp:157] Top shape: 1 128 38 38 (184832)
I0514 15:25:22.810111 12600 net.cpp:165] Memory required for data: 275339520
I0514 15:25:22.810114 12600 layer_factory.hpp:77] Creating layer scale3b2_branch2b
I0514 15:25:22.810118 12600 net.cpp:100] Creating Layer scale3b2_branch2b
I0514 15:25:22.810120 12600 net.cpp:434] scale3b2_branch2b <- res3b2_branch2b
I0514 15:25:22.810132 12600 net.cpp:395] scale3b2_branch2b -> res3b2_branch2b (in-place)
I0514 15:25:22.810156 12600 layer_factory.hpp:77] Creating layer scale3b2_branch2b
I0514 15:25:22.810225 12600 net.cpp:150] Setting up scale3b2_branch2b
I0514 15:25:22.810230 12600 net.cpp:157] Top shape: 1 128 38 38 (184832)
I0514 15:25:22.810231 12600 net.cpp:165] Memory required for data: 276078848
I0514 15:25:22.810235 12600 layer_factory.hpp:77] Creating layer res3b2_branch2b_relu
I0514 15:25:22.810237 12600 net.cpp:100] Creating Layer res3b2_branch2b_relu
I0514 15:25:22.810240 12600 net.cpp:434] res3b2_branch2b_relu <- res3b2_branch2b
I0514 15:25:22.810243 12600 net.cpp:395] res3b2_branch2b_relu -> res3b2_branch2b (in-place)
I0514 15:25:22.810351 12600 net.cpp:150] Setting up res3b2_branch2b_relu
I0514 15:25:22.810356 12600 net.cpp:157] Top shape: 1 128 38 38 (184832)
I0514 15:25:22.810359 12600 net.cpp:165] Memory required for data: 276818176
I0514 15:25:22.810360 12600 layer_factory.hpp:77] Creating layer res3b2_branch2c
I0514 15:25:22.810364 12600 net.cpp:100] Creating Layer res3b2_branch2c
I0514 15:25:22.810367 12600 net.cpp:434] res3b2_branch2c <- res3b2_branch2b
I0514 15:25:22.810371 12600 net.cpp:408] res3b2_branch2c -> res3b2_branch2c
I0514 15:25:22.812006 12600 net.cpp:150] Setting up res3b2_branch2c
I0514 15:25:22.812014 12600 net.cpp:157] Top shape: 1 512 38 38 (739328)
I0514 15:25:22.812017 12600 net.cpp:165] Memory required for data: 279775488
I0514 15:25:22.812021 12600 layer_factory.hpp:77] Creating layer bn3b2_branch2c
I0514 15:25:22.812026 12600 net.cpp:100] Creating Layer bn3b2_branch2c
I0514 15:25:22.812027 12600 net.cpp:434] bn3b2_branch2c <- res3b2_branch2c
I0514 15:25:22.812032 12600 net.cpp:395] bn3b2_branch2c -> res3b2_branch2c (in-place)
I0514 15:25:22.812153 12600 net.cpp:150] Setting up bn3b2_branch2c
I0514 15:25:22.812158 12600 net.cpp:157] Top shape: 1 512 38 38 (739328)
I0514 15:25:22.812160 12600 net.cpp:165] Memory required for data: 282732800
I0514 15:25:22.812165 12600 layer_factory.hpp:77] Creating layer scale3b2_branch2c
I0514 15:25:22.812170 12600 net.cpp:100] Creating Layer scale3b2_branch2c
I0514 15:25:22.812171 12600 net.cpp:434] scale3b2_branch2c <- res3b2_branch2c
I0514 15:25:22.812175 12600 net.cpp:395] scale3b2_branch2c -> res3b2_branch2c (in-place)
I0514 15:25:22.812196 12600 layer_factory.hpp:77] Creating layer scale3b2_branch2c
I0514 15:25:22.812268 12600 net.cpp:150] Setting up scale3b2_branch2c
I0514 15:25:22.812271 12600 net.cpp:157] Top shape: 1 512 38 38 (739328)
I0514 15:25:22.812273 12600 net.cpp:165] Memory required for data: 285690112
I0514 15:25:22.812276 12600 layer_factory.hpp:77] Creating layer res3b2
I0514 15:25:22.812281 12600 net.cpp:100] Creating Layer res3b2
I0514 15:25:22.812283 12600 net.cpp:434] res3b2 <- res3b1_res3b1_relu_0_split_1
I0514 15:25:22.812286 12600 net.cpp:434] res3b2 <- res3b2_branch2c
I0514 15:25:22.812289 12600 net.cpp:408] res3b2 -> res3b2
I0514 15:25:22.812304 12600 net.cpp:150] Setting up res3b2
I0514 15:25:22.812307 12600 net.cpp:157] Top shape: 1 512 38 38 (739328)
I0514 15:25:22.812309 12600 net.cpp:165] Memory required for data: 288647424
I0514 15:25:22.812311 12600 layer_factory.hpp:77] Creating layer res3b2_relu
I0514 15:25:22.812314 12600 net.cpp:100] Creating Layer res3b2_relu
I0514 15:25:22.812316 12600 net.cpp:434] res3b2_relu <- res3b2
I0514 15:25:22.812319 12600 net.cpp:395] res3b2_relu -> res3b2 (in-place)
I0514 15:25:22.812422 12600 net.cpp:150] Setting up res3b2_relu
I0514 15:25:22.812427 12600 net.cpp:157] Top shape: 1 512 38 38 (739328)
I0514 15:25:22.812429 12600 net.cpp:165] Memory required for data: 291604736
I0514 15:25:22.812432 12600 layer_factory.hpp:77] Creating layer res3b2_res3b2_relu_0_split
I0514 15:25:22.812436 12600 net.cpp:100] Creating Layer res3b2_res3b2_relu_0_split
I0514 15:25:22.812439 12600 net.cpp:434] res3b2_res3b2_relu_0_split <- res3b2
I0514 15:25:22.812443 12600 net.cpp:408] res3b2_res3b2_relu_0_split -> res3b2_res3b2_relu_0_split_0
I0514 15:25:22.812445 12600 net.cpp:408] res3b2_res3b2_relu_0_split -> res3b2_res3b2_relu_0_split_1
I0514 15:25:22.812477 12600 net.cpp:150] Setting up res3b2_res3b2_relu_0_split
I0514 15:25:22.812482 12600 net.cpp:157] Top shape: 1 512 38 38 (739328)
I0514 15:25:22.812484 12600 net.cpp:157] Top shape: 1 512 38 38 (739328)
I0514 15:25:22.812485 12600 net.cpp:165] Memory required for data: 297519360
I0514 15:25:22.812487 12600 layer_factory.hpp:77] Creating layer res3b3_branch2a
I0514 15:25:22.812494 12600 net.cpp:100] Creating Layer res3b3_branch2a
I0514 15:25:22.812495 12600 net.cpp:434] res3b3_branch2a <- res3b2_res3b2_relu_0_split_0
I0514 15:25:22.812500 12600 net.cpp:408] res3b3_branch2a -> res3b3_branch2a
I0514 15:25:22.813678 12600 net.cpp:150] Setting up res3b3_branch2a
I0514 15:25:22.813685 12600 net.cpp:157] Top shape: 1 128 38 38 (184832)
I0514 15:25:22.813688 12600 net.cpp:165] Memory required for data: 298258688
I0514 15:25:22.813690 12600 layer_factory.hpp:77] Creating layer bn3b3_branch2a
I0514 15:25:22.813694 12600 net.cpp:100] Creating Layer bn3b3_branch2a
I0514 15:25:22.813697 12600 net.cpp:434] bn3b3_branch2a <- res3b3_branch2a
I0514 15:25:22.813700 12600 net.cpp:395] bn3b3_branch2a -> res3b3_branch2a (in-place)
I0514 15:25:22.813819 12600 net.cpp:150] Setting up bn3b3_branch2a
I0514 15:25:22.813824 12600 net.cpp:157] Top shape: 1 128 38 38 (184832)
I0514 15:25:22.813827 12600 net.cpp:165] Memory required for data: 298998016
I0514 15:25:22.813839 12600 layer_factory.hpp:77] Creating layer scale3b3_branch2a
I0514 15:25:22.813844 12600 net.cpp:100] Creating Layer scale3b3_branch2a
I0514 15:25:22.813848 12600 net.cpp:434] scale3b3_branch2a <- res3b3_branch2a
I0514 15:25:22.813849 12600 net.cpp:395] scale3b3_branch2a -> res3b3_branch2a (in-place)
I0514 15:25:22.813875 12600 layer_factory.hpp:77] Creating layer scale3b3_branch2a
I0514 15:25:22.813944 12600 net.cpp:150] Setting up scale3b3_branch2a
I0514 15:25:22.813948 12600 net.cpp:157] Top shape: 1 128 38 38 (184832)
I0514 15:25:22.813951 12600 net.cpp:165] Memory required for data: 299737344
I0514 15:25:22.813953 12600 layer_factory.hpp:77] Creating layer res3b3_branch2a_relu
I0514 15:25:22.813957 12600 net.cpp:100] Creating Layer res3b3_branch2a_relu
I0514 15:25:22.813959 12600 net.cpp:434] res3b3_branch2a_relu <- res3b3_branch2a
I0514 15:25:22.813963 12600 net.cpp:395] res3b3_branch2a_relu -> res3b3_branch2a (in-place)
I0514 15:25:22.814067 12600 net.cpp:150] Setting up res3b3_branch2a_relu
I0514 15:25:22.814072 12600 net.cpp:157] Top shape: 1 128 38 38 (184832)
I0514 15:25:22.814075 12600 net.cpp:165] Memory required for data: 300476672
I0514 15:25:22.814077 12600 layer_factory.hpp:77] Creating layer res3b3_branch2b
I0514 15:25:22.814082 12600 net.cpp:100] Creating Layer res3b3_branch2b
I0514 15:25:22.814085 12600 net.cpp:434] res3b3_branch2b <- res3b3_branch2a
I0514 15:25:22.814088 12600 net.cpp:408] res3b3_branch2b -> res3b3_branch2b
I0514 15:25:22.816048 12600 net.cpp:150] Setting up res3b3_branch2b
I0514 15:25:22.816056 12600 net.cpp:157] Top shape: 1 128 38 38 (184832)
I0514 15:25:22.816058 12600 net.cpp:165] Memory required for data: 301216000
I0514 15:25:22.816061 12600 layer_factory.hpp:77] Creating layer bn3b3_branch2b
I0514 15:25:22.816064 12600 net.cpp:100] Creating Layer bn3b3_branch2b
I0514 15:25:22.816068 12600 net.cpp:434] bn3b3_branch2b <- res3b3_branch2b
I0514 15:25:22.816071 12600 net.cpp:395] bn3b3_branch2b -> res3b3_branch2b (in-place)
I0514 15:25:22.816195 12600 net.cpp:150] Setting up bn3b3_branch2b
I0514 15:25:22.816198 12600 net.cpp:157] Top shape: 1 128 38 38 (184832)
I0514 15:25:22.816200 12600 net.cpp:165] Memory required for data: 301955328
I0514 15:25:22.816203 12600 layer_factory.hpp:77] Creating layer scale3b3_branch2b
I0514 15:25:22.816208 12600 net.cpp:100] Creating Layer scale3b3_branch2b
I0514 15:25:22.816211 12600 net.cpp:434] scale3b3_branch2b <- res3b3_branch2b
I0514 15:25:22.816215 12600 net.cpp:395] scale3b3_branch2b -> res3b3_branch2b (in-place)
I0514 15:25:22.816238 12600 layer_factory.hpp:77] Creating layer scale3b3_branch2b
I0514 15:25:22.816309 12600 net.cpp:150] Setting up scale3b3_branch2b
I0514 15:25:22.816323 12600 net.cpp:157] Top shape: 1 128 38 38 (184832)
I0514 15:25:22.816324 12600 net.cpp:165] Memory required for data: 302694656
I0514 15:25:22.816326 12600 layer_factory.hpp:77] Creating layer res3b3_branch2b_relu
I0514 15:25:22.816331 12600 net.cpp:100] Creating Layer res3b3_branch2b_relu
I0514 15:25:22.816334 12600 net.cpp:434] res3b3_branch2b_relu <- res3b3_branch2b
I0514 15:25:22.816336 12600 net.cpp:395] res3b3_branch2b_relu -> res3b3_branch2b (in-place)
I0514 15:25:22.816445 12600 net.cpp:150] Setting up res3b3_branch2b_relu
I0514 15:25:22.816452 12600 net.cpp:157] Top shape: 1 128 38 38 (184832)
I0514 15:25:22.816452 12600 net.cpp:165] Memory required for data: 303433984
I0514 15:25:22.816454 12600 layer_factory.hpp:77] Creating layer res3b3_branch2c
I0514 15:25:22.816459 12600 net.cpp:100] Creating Layer res3b3_branch2c
I0514 15:25:22.816462 12600 net.cpp:434] res3b3_branch2c <- res3b3_branch2b
I0514 15:25:22.816468 12600 net.cpp:408] res3b3_branch2c -> res3b3_branch2c
I0514 15:25:22.817615 12600 net.cpp:150] Setting up res3b3_branch2c
I0514 15:25:22.817623 12600 net.cpp:157] Top shape: 1 512 38 38 (739328)
I0514 15:25:22.817626 12600 net.cpp:165] Memory required for data: 306391296
I0514 15:25:22.817629 12600 layer_factory.hpp:77] Creating layer bn3b3_branch2c
I0514 15:25:22.817633 12600 net.cpp:100] Creating Layer bn3b3_branch2c
I0514 15:25:22.817636 12600 net.cpp:434] bn3b3_branch2c <- res3b3_branch2c
I0514 15:25:22.817639 12600 net.cpp:395] bn3b3_branch2c -> res3b3_branch2c (in-place)
I0514 15:25:22.817761 12600 net.cpp:150] Setting up bn3b3_branch2c
I0514 15:25:22.817766 12600 net.cpp:157] Top shape: 1 512 38 38 (739328)
I0514 15:25:22.817767 12600 net.cpp:165] Memory required for data: 309348608
I0514 15:25:22.817771 12600 layer_factory.hpp:77] Creating layer scale3b3_branch2c
I0514 15:25:22.817775 12600 net.cpp:100] Creating Layer scale3b3_branch2c
I0514 15:25:22.817778 12600 net.cpp:434] scale3b3_branch2c <- res3b3_branch2c
I0514 15:25:22.817781 12600 net.cpp:395] scale3b3_branch2c -> res3b3_branch2c (in-place)
I0514 15:25:22.817803 12600 layer_factory.hpp:77] Creating layer scale3b3_branch2c
I0514 15:25:22.817876 12600 net.cpp:150] Setting up scale3b3_branch2c
I0514 15:25:22.817880 12600 net.cpp:157] Top shape: 1 512 38 38 (739328)
I0514 15:25:22.817883 12600 net.cpp:165] Memory required for data: 312305920
I0514 15:25:22.817885 12600 layer_factory.hpp:77] Creating layer res3b3
I0514 15:25:22.817888 12600 net.cpp:100] Creating Layer res3b3
I0514 15:25:22.817890 12600 net.cpp:434] res3b3 <- res3b2_res3b2_relu_0_split_1
I0514 15:25:22.817893 12600 net.cpp:434] res3b3 <- res3b3_branch2c
I0514 15:25:22.817898 12600 net.cpp:408] res3b3 -> res3b3
I0514 15:25:22.817911 12600 net.cpp:150] Setting up res3b3
I0514 15:25:22.817915 12600 net.cpp:157] Top shape: 1 512 38 38 (739328)
I0514 15:25:22.817917 12600 net.cpp:165] Memory required for data: 315263232
I0514 15:25:22.817919 12600 layer_factory.hpp:77] Creating layer res3b3_relu
I0514 15:25:22.817922 12600 net.cpp:100] Creating Layer res3b3_relu
I0514 15:25:22.817924 12600 net.cpp:434] res3b3_relu <- res3b3
I0514 15:25:22.817926 12600 net.cpp:395] res3b3_relu -> res3b3 (in-place)
I0514 15:25:22.818346 12600 net.cpp:150] Setting up res3b3_relu
I0514 15:25:22.818353 12600 net.cpp:157] Top shape: 1 512 38 38 (739328)
I0514 15:25:22.818356 12600 net.cpp:165] Memory required for data: 318220544
I0514 15:25:22.818357 12600 layer_factory.hpp:77] Creating layer res3b3_res3b3_relu_0_split
I0514 15:25:22.818361 12600 net.cpp:100] Creating Layer res3b3_res3b3_relu_0_split
I0514 15:25:22.818363 12600 net.cpp:434] res3b3_res3b3_relu_0_split <- res3b3
I0514 15:25:22.818367 12600 net.cpp:408] res3b3_res3b3_relu_0_split -> res3b3_res3b3_relu_0_split_0
I0514 15:25:22.818372 12600 net.cpp:408] res3b3_res3b3_relu_0_split -> res3b3_res3b3_relu_0_split_1
I0514 15:25:22.818377 12600 net.cpp:408] res3b3_res3b3_relu_0_split -> res3b3_res3b3_relu_0_split_2
I0514 15:25:22.818382 12600 net.cpp:408] res3b3_res3b3_relu_0_split -> res3b3_res3b3_relu_0_split_3
I0514 15:25:22.818390 12600 net.cpp:408] res3b3_res3b3_relu_0_split -> res3b3_res3b3_relu_0_split_4
I0514 15:25:22.818440 12600 net.cpp:150] Setting up res3b3_res3b3_relu_0_split
I0514 15:25:22.818444 12600 net.cpp:157] Top shape: 1 512 38 38 (739328)
I0514 15:25:22.818447 12600 net.cpp:157] Top shape: 1 512 38 38 (739328)
I0514 15:25:22.818449 12600 net.cpp:157] Top shape: 1 512 38 38 (739328)
I0514 15:25:22.818451 12600 net.cpp:157] Top shape: 1 512 38 38 (739328)
I0514 15:25:22.818454 12600 net.cpp:157] Top shape: 1 512 38 38 (739328)
I0514 15:25:22.818455 12600 net.cpp:165] Memory required for data: 333007104
I0514 15:25:22.818457 12600 layer_factory.hpp:77] Creating layer res4a_branch1
I0514 15:25:22.818462 12600 net.cpp:100] Creating Layer res4a_branch1
I0514 15:25:22.818465 12600 net.cpp:434] res4a_branch1 <- res3b3_res3b3_relu_0_split_0
I0514 15:25:22.818470 12600 net.cpp:408] res4a_branch1 -> res4a_branch1
I0514 15:25:22.822856 12600 net.cpp:150] Setting up res4a_branch1
I0514 15:25:22.822865 12600 net.cpp:157] Top shape: 1 1024 19 19 (369664)
I0514 15:25:22.822875 12600 net.cpp:165] Memory required for data: 334485760
I0514 15:25:22.822877 12600 layer_factory.hpp:77] Creating layer bn4a_branch1
I0514 15:25:22.822880 12600 net.cpp:100] Creating Layer bn4a_branch1
I0514 15:25:22.822883 12600 net.cpp:434] bn4a_branch1 <- res4a_branch1
I0514 15:25:22.822887 12600 net.cpp:395] bn4a_branch1 -> res4a_branch1 (in-place)
I0514 15:25:22.823005 12600 net.cpp:150] Setting up bn4a_branch1
I0514 15:25:22.823009 12600 net.cpp:157] Top shape: 1 1024 19 19 (369664)
I0514 15:25:22.823011 12600 net.cpp:165] Memory required for data: 335964416
I0514 15:25:22.823015 12600 layer_factory.hpp:77] Creating layer scale4a_branch1
I0514 15:25:22.823019 12600 net.cpp:100] Creating Layer scale4a_branch1
I0514 15:25:22.823022 12600 net.cpp:434] scale4a_branch1 <- res4a_branch1
I0514 15:25:22.823024 12600 net.cpp:395] scale4a_branch1 -> res4a_branch1 (in-place)
I0514 15:25:22.823050 12600 layer_factory.hpp:77] Creating layer scale4a_branch1
I0514 15:25:22.823117 12600 net.cpp:150] Setting up scale4a_branch1
I0514 15:25:22.823122 12600 net.cpp:157] Top shape: 1 1024 19 19 (369664)
I0514 15:25:22.823122 12600 net.cpp:165] Memory required for data: 337443072
I0514 15:25:22.823127 12600 layer_factory.hpp:77] Creating layer res4a_branch2a
I0514 15:25:22.823132 12600 net.cpp:100] Creating Layer res4a_branch2a
I0514 15:25:22.823133 12600 net.cpp:434] res4a_branch2a <- res3b3_res3b3_relu_0_split_1
I0514 15:25:22.823137 12600 net.cpp:408] res4a_branch2a -> res4a_branch2a
I0514 15:25:22.824370 12600 net.cpp:150] Setting up res4a_branch2a
I0514 15:25:22.824376 12600 net.cpp:157] Top shape: 1 256 19 19 (92416)
I0514 15:25:22.824378 12600 net.cpp:165] Memory required for data: 337812736
I0514 15:25:22.824381 12600 layer_factory.hpp:77] Creating layer bn4a_branch2a
I0514 15:25:22.824385 12600 net.cpp:100] Creating Layer bn4a_branch2a
I0514 15:25:22.824388 12600 net.cpp:434] bn4a_branch2a <- res4a_branch2a
I0514 15:25:22.824390 12600 net.cpp:395] bn4a_branch2a -> res4a_branch2a (in-place)
I0514 15:25:22.824508 12600 net.cpp:150] Setting up bn4a_branch2a
I0514 15:25:22.824512 12600 net.cpp:157] Top shape: 1 256 19 19 (92416)
I0514 15:25:22.824514 12600 net.cpp:165] Memory required for data: 338182400
I0514 15:25:22.824517 12600 layer_factory.hpp:77] Creating layer scale4a_branch2a
I0514 15:25:22.824522 12600 net.cpp:100] Creating Layer scale4a_branch2a
I0514 15:25:22.824525 12600 net.cpp:434] scale4a_branch2a <- res4a_branch2a
I0514 15:25:22.824528 12600 net.cpp:395] scale4a_branch2a -> res4a_branch2a (in-place)
I0514 15:25:22.824551 12600 layer_factory.hpp:77] Creating layer scale4a_branch2a
I0514 15:25:22.824621 12600 net.cpp:150] Setting up scale4a_branch2a
I0514 15:25:22.824625 12600 net.cpp:157] Top shape: 1 256 19 19 (92416)
I0514 15:25:22.824627 12600 net.cpp:165] Memory required for data: 338552064
I0514 15:25:22.824630 12600 layer_factory.hpp:77] Creating layer res4a_branch2a_relu
I0514 15:25:22.824633 12600 net.cpp:100] Creating Layer res4a_branch2a_relu
I0514 15:25:22.824643 12600 net.cpp:434] res4a_branch2a_relu <- res4a_branch2a
I0514 15:25:22.824646 12600 net.cpp:395] res4a_branch2a_relu -> res4a_branch2a (in-place)
I0514 15:25:22.825078 12600 net.cpp:150] Setting up res4a_branch2a_relu
I0514 15:25:22.825084 12600 net.cpp:157] Top shape: 1 256 19 19 (92416)
I0514 15:25:22.825088 12600 net.cpp:165] Memory required for data: 338921728
I0514 15:25:22.825089 12600 layer_factory.hpp:77] Creating layer res4a_branch2b
I0514 15:25:22.825094 12600 net.cpp:100] Creating Layer res4a_branch2b
I0514 15:25:22.825096 12600 net.cpp:434] res4a_branch2b <- res4a_branch2a
I0514 15:25:22.825103 12600 net.cpp:408] res4a_branch2b -> res4a_branch2b
I0514 15:25:22.830299 12600 net.cpp:150] Setting up res4a_branch2b
I0514 15:25:22.830307 12600 net.cpp:157] Top shape: 1 256 19 19 (92416)
I0514 15:25:22.830309 12600 net.cpp:165] Memory required for data: 339291392
I0514 15:25:22.830313 12600 layer_factory.hpp:77] Creating layer bn4a_branch2b
I0514 15:25:22.830322 12600 net.cpp:100] Creating Layer bn4a_branch2b
I0514 15:25:22.830323 12600 net.cpp:434] bn4a_branch2b <- res4a_branch2b
I0514 15:25:22.830328 12600 net.cpp:395] bn4a_branch2b -> res4a_branch2b (in-place)
I0514 15:25:22.830453 12600 net.cpp:150] Setting up bn4a_branch2b
I0514 15:25:22.830457 12600 net.cpp:157] Top shape: 1 256 19 19 (92416)
I0514 15:25:22.830461 12600 net.cpp:165] Memory required for data: 339661056
I0514 15:25:22.830463 12600 layer_factory.hpp:77] Creating layer scale4a_branch2b
I0514 15:25:22.830469 12600 net.cpp:100] Creating Layer scale4a_branch2b
I0514 15:25:22.830472 12600 net.cpp:434] scale4a_branch2b <- res4a_branch2b
I0514 15:25:22.830474 12600 net.cpp:395] scale4a_branch2b -> res4a_branch2b (in-place)
I0514 15:25:22.830498 12600 layer_factory.hpp:77] Creating layer scale4a_branch2b
I0514 15:25:22.830569 12600 net.cpp:150] Setting up scale4a_branch2b
I0514 15:25:22.830572 12600 net.cpp:157] Top shape: 1 256 19 19 (92416)
I0514 15:25:22.830574 12600 net.cpp:165] Memory required for data: 340030720
I0514 15:25:22.830577 12600 layer_factory.hpp:77] Creating layer res4a_branch2b_relu
I0514 15:25:22.830582 12600 net.cpp:100] Creating Layer res4a_branch2b_relu
I0514 15:25:22.830585 12600 net.cpp:434] res4a_branch2b_relu <- res4a_branch2b
I0514 15:25:22.830587 12600 net.cpp:395] res4a_branch2b_relu -> res4a_branch2b (in-place)
I0514 15:25:22.830696 12600 net.cpp:150] Setting up res4a_branch2b_relu
I0514 15:25:22.830703 12600 net.cpp:157] Top shape: 1 256 19 19 (92416)
I0514 15:25:22.830704 12600 net.cpp:165] Memory required for data: 340400384
I0514 15:25:22.830706 12600 layer_factory.hpp:77] Creating layer res4a_branch2c
I0514 15:25:22.830713 12600 net.cpp:100] Creating Layer res4a_branch2c
I0514 15:25:22.830715 12600 net.cpp:434] res4a_branch2c <- res4a_branch2b
I0514 15:25:22.830718 12600 net.cpp:408] res4a_branch2c -> res4a_branch2c
I0514 15:25:22.833561 12600 net.cpp:150] Setting up res4a_branch2c
I0514 15:25:22.833570 12600 net.cpp:157] Top shape: 1 1024 19 19 (369664)
I0514 15:25:22.833572 12600 net.cpp:165] Memory required for data: 341879040
I0514 15:25:22.833575 12600 layer_factory.hpp:77] Creating layer bn4a_branch2c
I0514 15:25:22.833580 12600 net.cpp:100] Creating Layer bn4a_branch2c
I0514 15:25:22.833583 12600 net.cpp:434] bn4a_branch2c <- res4a_branch2c
I0514 15:25:22.833587 12600 net.cpp:395] bn4a_branch2c -> res4a_branch2c (in-place)
I0514 15:25:22.833712 12600 net.cpp:150] Setting up bn4a_branch2c
I0514 15:25:22.833716 12600 net.cpp:157] Top shape: 1 1024 19 19 (369664)
I0514 15:25:22.833719 12600 net.cpp:165] Memory required for data: 343357696
I0514 15:25:22.833722 12600 layer_factory.hpp:77] Creating layer scale4a_branch2c
I0514 15:25:22.833725 12600 net.cpp:100] Creating Layer scale4a_branch2c
I0514 15:25:22.833729 12600 net.cpp:434] scale4a_branch2c <- res4a_branch2c
I0514 15:25:22.833731 12600 net.cpp:395] scale4a_branch2c -> res4a_branch2c (in-place)
I0514 15:25:22.833756 12600 layer_factory.hpp:77] Creating layer scale4a_branch2c
I0514 15:25:22.833834 12600 net.cpp:150] Setting up scale4a_branch2c
I0514 15:25:22.833838 12600 net.cpp:157] Top shape: 1 1024 19 19 (369664)
I0514 15:25:22.833840 12600 net.cpp:165] Memory required for data: 344836352
I0514 15:25:22.833843 12600 layer_factory.hpp:77] Creating layer res4a
I0514 15:25:22.833847 12600 net.cpp:100] Creating Layer res4a
I0514 15:25:22.833849 12600 net.cpp:434] res4a <- res4a_branch1
I0514 15:25:22.833853 12600 net.cpp:434] res4a <- res4a_branch2c
I0514 15:25:22.833856 12600 net.cpp:408] res4a -> res4a
I0514 15:25:22.833873 12600 net.cpp:150] Setting up res4a
I0514 15:25:22.833878 12600 net.cpp:157] Top shape: 1 1024 19 19 (369664)
I0514 15:25:22.833878 12600 net.cpp:165] Memory required for data: 346315008
I0514 15:25:22.833880 12600 layer_factory.hpp:77] Creating layer res4a_relu
I0514 15:25:22.833884 12600 net.cpp:100] Creating Layer res4a_relu
I0514 15:25:22.833885 12600 net.cpp:434] res4a_relu <- res4a
I0514 15:25:22.833889 12600 net.cpp:395] res4a_relu -> res4a (in-place)
I0514 15:25:22.833994 12600 net.cpp:150] Setting up res4a_relu
I0514 15:25:22.833999 12600 net.cpp:157] Top shape: 1 1024 19 19 (369664)
I0514 15:25:22.834002 12600 net.cpp:165] Memory required for data: 347793664
I0514 15:25:22.834003 12600 layer_factory.hpp:77] Creating layer res4a_res4a_relu_0_split
I0514 15:25:22.834019 12600 net.cpp:100] Creating Layer res4a_res4a_relu_0_split
I0514 15:25:22.834022 12600 net.cpp:434] res4a_res4a_relu_0_split <- res4a
I0514 15:25:22.834025 12600 net.cpp:408] res4a_res4a_relu_0_split -> res4a_res4a_relu_0_split_0
I0514 15:25:22.834035 12600 net.cpp:408] res4a_res4a_relu_0_split -> res4a_res4a_relu_0_split_1
I0514 15:25:22.834061 12600 net.cpp:150] Setting up res4a_res4a_relu_0_split
I0514 15:25:22.834065 12600 net.cpp:157] Top shape: 1 1024 19 19 (369664)
I0514 15:25:22.834069 12600 net.cpp:157] Top shape: 1 1024 19 19 (369664)
I0514 15:25:22.834069 12600 net.cpp:165] Memory required for data: 350750976
I0514 15:25:22.834071 12600 layer_factory.hpp:77] Creating layer res4b1_branch2a
I0514 15:25:22.834076 12600 net.cpp:100] Creating Layer res4b1_branch2a
I0514 15:25:22.834079 12600 net.cpp:434] res4b1_branch2a <- res4a_res4a_relu_0_split_0
I0514 15:25:22.834082 12600 net.cpp:408] res4b1_branch2a -> res4b1_branch2a
I0514 15:25:22.836439 12600 net.cpp:150] Setting up res4b1_branch2a
I0514 15:25:22.836447 12600 net.cpp:157] Top shape: 1 256 19 19 (92416)
I0514 15:25:22.836449 12600 net.cpp:165] Memory required for data: 351120640
I0514 15:25:22.836452 12600 layer_factory.hpp:77] Creating layer bn4b1_branch2a
I0514 15:25:22.836457 12600 net.cpp:100] Creating Layer bn4b1_branch2a
I0514 15:25:22.836460 12600 net.cpp:434] bn4b1_branch2a <- res4b1_branch2a
I0514 15:25:22.836463 12600 net.cpp:395] bn4b1_branch2a -> res4b1_branch2a (in-place)
I0514 15:25:22.836587 12600 net.cpp:150] Setting up bn4b1_branch2a
I0514 15:25:22.836592 12600 net.cpp:157] Top shape: 1 256 19 19 (92416)
I0514 15:25:22.836594 12600 net.cpp:165] Memory required for data: 351490304
I0514 15:25:22.836598 12600 layer_factory.hpp:77] Creating layer scale4b1_branch2a
I0514 15:25:22.836603 12600 net.cpp:100] Creating Layer scale4b1_branch2a
I0514 15:25:22.836606 12600 net.cpp:434] scale4b1_branch2a <- res4b1_branch2a
I0514 15:25:22.836608 12600 net.cpp:395] scale4b1_branch2a -> res4b1_branch2a (in-place)
I0514 15:25:22.836633 12600 layer_factory.hpp:77] Creating layer scale4b1_branch2a
I0514 15:25:22.836705 12600 net.cpp:150] Setting up scale4b1_branch2a
I0514 15:25:22.836710 12600 net.cpp:157] Top shape: 1 256 19 19 (92416)
I0514 15:25:22.836711 12600 net.cpp:165] Memory required for data: 351859968
I0514 15:25:22.836714 12600 layer_factory.hpp:77] Creating layer res4b1_branch2a_relu
I0514 15:25:22.836719 12600 net.cpp:100] Creating Layer res4b1_branch2a_relu
I0514 15:25:22.836721 12600 net.cpp:434] res4b1_branch2a_relu <- res4b1_branch2a
I0514 15:25:22.836724 12600 net.cpp:395] res4b1_branch2a_relu -> res4b1_branch2a (in-place)
I0514 15:25:22.836827 12600 net.cpp:150] Setting up res4b1_branch2a_relu
I0514 15:25:22.836833 12600 net.cpp:157] Top shape: 1 256 19 19 (92416)
I0514 15:25:22.836840 12600 net.cpp:165] Memory required for data: 352229632
I0514 15:25:22.836843 12600 layer_factory.hpp:77] Creating layer res4b1_branch2b
I0514 15:25:22.836848 12600 net.cpp:100] Creating Layer res4b1_branch2b
I0514 15:25:22.836850 12600 net.cpp:434] res4b1_branch2b <- res4b1_branch2a
I0514 15:25:22.836854 12600 net.cpp:408] res4b1_branch2b -> res4b1_branch2b
I0514 15:25:22.842031 12600 net.cpp:150] Setting up res4b1_branch2b
I0514 15:25:22.842039 12600 net.cpp:157] Top shape: 1 256 19 19 (92416)
I0514 15:25:22.842041 12600 net.cpp:165] Memory required for data: 352599296
I0514 15:25:22.842046 12600 layer_factory.hpp:77] Creating layer bn4b1_branch2b
I0514 15:25:22.842049 12600 net.cpp:100] Creating Layer bn4b1_branch2b
I0514 15:25:22.842052 12600 net.cpp:434] bn4b1_branch2b <- res4b1_branch2b
I0514 15:25:22.842056 12600 net.cpp:395] bn4b1_branch2b -> res4b1_branch2b (in-place)
I0514 15:25:22.842183 12600 net.cpp:150] Setting up bn4b1_branch2b
I0514 15:25:22.842187 12600 net.cpp:157] Top shape: 1 256 19 19 (92416)
I0514 15:25:22.842190 12600 net.cpp:165] Memory required for data: 352968960
I0514 15:25:22.842192 12600 layer_factory.hpp:77] Creating layer scale4b1_branch2b
I0514 15:25:22.842197 12600 net.cpp:100] Creating Layer scale4b1_branch2b
I0514 15:25:22.842200 12600 net.cpp:434] scale4b1_branch2b <- res4b1_branch2b
I0514 15:25:22.842203 12600 net.cpp:395] scale4b1_branch2b -> res4b1_branch2b (in-place)
I0514 15:25:22.842227 12600 layer_factory.hpp:77] Creating layer scale4b1_branch2b
I0514 15:25:22.842299 12600 net.cpp:150] Setting up scale4b1_branch2b
I0514 15:25:22.842304 12600 net.cpp:157] Top shape: 1 256 19 19 (92416)
I0514 15:25:22.842306 12600 net.cpp:165] Memory required for data: 353338624
I0514 15:25:22.842309 12600 layer_factory.hpp:77] Creating layer res4b1_branch2b_relu
I0514 15:25:22.842314 12600 net.cpp:100] Creating Layer res4b1_branch2b_relu
I0514 15:25:22.842315 12600 net.cpp:434] res4b1_branch2b_relu <- res4b1_branch2b
I0514 15:25:22.842317 12600 net.cpp:395] res4b1_branch2b_relu -> res4b1_branch2b (in-place)
I0514 15:25:22.842442 12600 net.cpp:150] Setting up res4b1_branch2b_relu
I0514 15:25:22.842448 12600 net.cpp:157] Top shape: 1 256 19 19 (92416)
I0514 15:25:22.842450 12600 net.cpp:165] Memory required for data: 353708288
I0514 15:25:22.842452 12600 layer_factory.hpp:77] Creating layer res4b1_branch2c
I0514 15:25:22.842455 12600 net.cpp:100] Creating Layer res4b1_branch2c
I0514 15:25:22.842458 12600 net.cpp:434] res4b1_branch2c <- res4b1_branch2b
I0514 15:25:22.842463 12600 net.cpp:408] res4b1_branch2c -> res4b1_branch2c
I0514 15:25:22.845305 12600 net.cpp:150] Setting up res4b1_branch2c
I0514 15:25:22.845314 12600 net.cpp:157] Top shape: 1 1024 19 19 (369664)
I0514 15:25:22.845315 12600 net.cpp:165] Memory required for data: 355186944
I0514 15:25:22.845319 12600 layer_factory.hpp:77] Creating layer bn4b1_branch2c
I0514 15:25:22.845324 12600 net.cpp:100] Creating Layer bn4b1_branch2c
I0514 15:25:22.845326 12600 net.cpp:434] bn4b1_branch2c <- res4b1_branch2c
I0514 15:25:22.845329 12600 net.cpp:395] bn4b1_branch2c -> res4b1_branch2c (in-place)
I0514 15:25:22.845458 12600 net.cpp:150] Setting up bn4b1_branch2c
I0514 15:25:22.845463 12600 net.cpp:157] Top shape: 1 1024 19 19 (369664)
I0514 15:25:22.845465 12600 net.cpp:165] Memory required for data: 356665600
I0514 15:25:22.845469 12600 layer_factory.hpp:77] Creating layer scale4b1_branch2c
I0514 15:25:22.845474 12600 net.cpp:100] Creating Layer scale4b1_branch2c
I0514 15:25:22.845475 12600 net.cpp:434] scale4b1_branch2c <- res4b1_branch2c
I0514 15:25:22.845477 12600 net.cpp:395] scale4b1_branch2c -> res4b1_branch2c (in-place)
I0514 15:25:22.845504 12600 layer_factory.hpp:77] Creating layer scale4b1_branch2c
I0514 15:25:22.845573 12600 net.cpp:150] Setting up scale4b1_branch2c
I0514 15:25:22.845577 12600 net.cpp:157] Top shape: 1 1024 19 19 (369664)
I0514 15:25:22.845578 12600 net.cpp:165] Memory required for data: 358144256
I0514 15:25:22.845582 12600 layer_factory.hpp:77] Creating layer res4b1
I0514 15:25:22.845594 12600 net.cpp:100] Creating Layer res4b1
I0514 15:25:22.845597 12600 net.cpp:434] res4b1 <- res4a_res4a_relu_0_split_1
I0514 15:25:22.845600 12600 net.cpp:434] res4b1 <- res4b1_branch2c
I0514 15:25:22.845603 12600 net.cpp:408] res4b1 -> res4b1
I0514 15:25:22.845620 12600 net.cpp:150] Setting up res4b1
I0514 15:25:22.845624 12600 net.cpp:157] Top shape: 1 1024 19 19 (369664)
I0514 15:25:22.845625 12600 net.cpp:165] Memory required for data: 359622912
I0514 15:25:22.845628 12600 layer_factory.hpp:77] Creating layer res4b1_relu
I0514 15:25:22.845630 12600 net.cpp:100] Creating Layer res4b1_relu
I0514 15:25:22.845633 12600 net.cpp:434] res4b1_relu <- res4b1
I0514 15:25:22.845634 12600 net.cpp:395] res4b1_relu -> res4b1 (in-place)
I0514 15:25:22.846068 12600 net.cpp:150] Setting up res4b1_relu
I0514 15:25:22.846076 12600 net.cpp:157] Top shape: 1 1024 19 19 (369664)
I0514 15:25:22.846077 12600 net.cpp:165] Memory required for data: 361101568
I0514 15:25:22.846079 12600 layer_factory.hpp:77] Creating layer res4b1_res4b1_relu_0_split
I0514 15:25:22.846083 12600 net.cpp:100] Creating Layer res4b1_res4b1_relu_0_split
I0514 15:25:22.846086 12600 net.cpp:434] res4b1_res4b1_relu_0_split <- res4b1
I0514 15:25:22.846089 12600 net.cpp:408] res4b1_res4b1_relu_0_split -> res4b1_res4b1_relu_0_split_0
I0514 15:25:22.846093 12600 net.cpp:408] res4b1_res4b1_relu_0_split -> res4b1_res4b1_relu_0_split_1
I0514 15:25:22.846122 12600 net.cpp:150] Setting up res4b1_res4b1_relu_0_split
I0514 15:25:22.846125 12600 net.cpp:157] Top shape: 1 1024 19 19 (369664)
I0514 15:25:22.846128 12600 net.cpp:157] Top shape: 1 1024 19 19 (369664)
I0514 15:25:22.846129 12600 net.cpp:165] Memory required for data: 364058880
I0514 15:25:22.846132 12600 layer_factory.hpp:77] Creating layer res4b2_branch2a
I0514 15:25:22.846137 12600 net.cpp:100] Creating Layer res4b2_branch2a
I0514 15:25:22.846139 12600 net.cpp:434] res4b2_branch2a <- res4b1_res4b1_relu_0_split_0
I0514 15:25:22.846143 12600 net.cpp:408] res4b2_branch2a -> res4b2_branch2a
I0514 15:25:22.848496 12600 net.cpp:150] Setting up res4b2_branch2a
I0514 15:25:22.848505 12600 net.cpp:157] Top shape: 1 256 19 19 (92416)
I0514 15:25:22.848507 12600 net.cpp:165] Memory required for data: 364428544
I0514 15:25:22.848510 12600 layer_factory.hpp:77] Creating layer bn4b2_branch2a
I0514 15:25:22.848515 12600 net.cpp:100] Creating Layer bn4b2_branch2a
I0514 15:25:22.848517 12600 net.cpp:434] bn4b2_branch2a <- res4b2_branch2a
I0514 15:25:22.848520 12600 net.cpp:395] bn4b2_branch2a -> res4b2_branch2a (in-place)
I0514 15:25:22.848646 12600 net.cpp:150] Setting up bn4b2_branch2a
I0514 15:25:22.848651 12600 net.cpp:157] Top shape: 1 256 19 19 (92416)
I0514 15:25:22.848652 12600 net.cpp:165] Memory required for data: 364798208
I0514 15:25:22.848656 12600 layer_factory.hpp:77] Creating layer scale4b2_branch2a
I0514 15:25:22.848660 12600 net.cpp:100] Creating Layer scale4b2_branch2a
I0514 15:25:22.848664 12600 net.cpp:434] scale4b2_branch2a <- res4b2_branch2a
I0514 15:25:22.848666 12600 net.cpp:395] scale4b2_branch2a -> res4b2_branch2a (in-place)
I0514 15:25:22.848690 12600 layer_factory.hpp:77] Creating layer scale4b2_branch2a
I0514 15:25:22.848764 12600 net.cpp:150] Setting up scale4b2_branch2a
I0514 15:25:22.848768 12600 net.cpp:157] Top shape: 1 256 19 19 (92416)
I0514 15:25:22.848770 12600 net.cpp:165] Memory required for data: 365167872
I0514 15:25:22.848773 12600 layer_factory.hpp:77] Creating layer res4b2_branch2a_relu
I0514 15:25:22.848776 12600 net.cpp:100] Creating Layer res4b2_branch2a_relu
I0514 15:25:22.848778 12600 net.cpp:434] res4b2_branch2a_relu <- res4b2_branch2a
I0514 15:25:22.848781 12600 net.cpp:395] res4b2_branch2a_relu -> res4b2_branch2a (in-place)
I0514 15:25:22.849211 12600 net.cpp:150] Setting up res4b2_branch2a_relu
I0514 15:25:22.849218 12600 net.cpp:157] Top shape: 1 256 19 19 (92416)
I0514 15:25:22.849221 12600 net.cpp:165] Memory required for data: 365537536
I0514 15:25:22.849223 12600 layer_factory.hpp:77] Creating layer res4b2_branch2b
I0514 15:25:22.849228 12600 net.cpp:100] Creating Layer res4b2_branch2b
I0514 15:25:22.849237 12600 net.cpp:434] res4b2_branch2b <- res4b2_branch2a
I0514 15:25:22.849242 12600 net.cpp:408] res4b2_branch2b -> res4b2_branch2b
I0514 15:25:22.854404 12600 net.cpp:150] Setting up res4b2_branch2b
I0514 15:25:22.854413 12600 net.cpp:157] Top shape: 1 256 19 19 (92416)
I0514 15:25:22.854415 12600 net.cpp:165] Memory required for data: 365907200
I0514 15:25:22.854419 12600 layer_factory.hpp:77] Creating layer bn4b2_branch2b
I0514 15:25:22.854423 12600 net.cpp:100] Creating Layer bn4b2_branch2b
I0514 15:25:22.854425 12600 net.cpp:434] bn4b2_branch2b <- res4b2_branch2b
I0514 15:25:22.854429 12600 net.cpp:395] bn4b2_branch2b -> res4b2_branch2b (in-place)
I0514 15:25:22.854560 12600 net.cpp:150] Setting up bn4b2_branch2b
I0514 15:25:22.854564 12600 net.cpp:157] Top shape: 1 256 19 19 (92416)
I0514 15:25:22.854567 12600 net.cpp:165] Memory required for data: 366276864
I0514 15:25:22.854570 12600 layer_factory.hpp:77] Creating layer scale4b2_branch2b
I0514 15:25:22.854575 12600 net.cpp:100] Creating Layer scale4b2_branch2b
I0514 15:25:22.854578 12600 net.cpp:434] scale4b2_branch2b <- res4b2_branch2b
I0514 15:25:22.854581 12600 net.cpp:395] scale4b2_branch2b -> res4b2_branch2b (in-place)
I0514 15:25:22.854605 12600 layer_factory.hpp:77] Creating layer scale4b2_branch2b
I0514 15:25:22.854679 12600 net.cpp:150] Setting up scale4b2_branch2b
I0514 15:25:22.854683 12600 net.cpp:157] Top shape: 1 256 19 19 (92416)
I0514 15:25:22.854686 12600 net.cpp:165] Memory required for data: 366646528
I0514 15:25:22.854689 12600 layer_factory.hpp:77] Creating layer res4b2_branch2b_relu
I0514 15:25:22.854692 12600 net.cpp:100] Creating Layer res4b2_branch2b_relu
I0514 15:25:22.854696 12600 net.cpp:434] res4b2_branch2b_relu <- res4b2_branch2b
I0514 15:25:22.854697 12600 net.cpp:395] res4b2_branch2b_relu -> res4b2_branch2b (in-place)
I0514 15:25:22.854807 12600 net.cpp:150] Setting up res4b2_branch2b_relu
I0514 15:25:22.854813 12600 net.cpp:157] Top shape: 1 256 19 19 (92416)
I0514 15:25:22.854815 12600 net.cpp:165] Memory required for data: 367016192
I0514 15:25:22.854817 12600 layer_factory.hpp:77] Creating layer res4b2_branch2c
I0514 15:25:22.854823 12600 net.cpp:100] Creating Layer res4b2_branch2c
I0514 15:25:22.854826 12600 net.cpp:434] res4b2_branch2c <- res4b2_branch2b
I0514 15:25:22.854830 12600 net.cpp:408] res4b2_branch2c -> res4b2_branch2c
I0514 15:25:22.857662 12600 net.cpp:150] Setting up res4b2_branch2c
I0514 15:25:22.857671 12600 net.cpp:157] Top shape: 1 1024 19 19 (369664)
I0514 15:25:22.857673 12600 net.cpp:165] Memory required for data: 368494848
I0514 15:25:22.857676 12600 layer_factory.hpp:77] Creating layer bn4b2_branch2c
I0514 15:25:22.857679 12600 net.cpp:100] Creating Layer bn4b2_branch2c
I0514 15:25:22.857682 12600 net.cpp:434] bn4b2_branch2c <- res4b2_branch2c
I0514 15:25:22.857686 12600 net.cpp:395] bn4b2_branch2c -> res4b2_branch2c (in-place)
I0514 15:25:22.857815 12600 net.cpp:150] Setting up bn4b2_branch2c
I0514 15:25:22.857820 12600 net.cpp:157] Top shape: 1 1024 19 19 (369664)
I0514 15:25:22.857820 12600 net.cpp:165] Memory required for data: 369973504
I0514 15:25:22.857825 12600 layer_factory.hpp:77] Creating layer scale4b2_branch2c
I0514 15:25:22.857830 12600 net.cpp:100] Creating Layer scale4b2_branch2c
I0514 15:25:22.857831 12600 net.cpp:434] scale4b2_branch2c <- res4b2_branch2c
I0514 15:25:22.857836 12600 net.cpp:395] scale4b2_branch2c -> res4b2_branch2c (in-place)
I0514 15:25:22.857861 12600 layer_factory.hpp:77] Creating layer scale4b2_branch2c
I0514 15:25:22.857931 12600 net.cpp:150] Setting up scale4b2_branch2c
I0514 15:25:22.857936 12600 net.cpp:157] Top shape: 1 1024 19 19 (369664)
I0514 15:25:22.857938 12600 net.cpp:165] Memory required for data: 371452160
I0514 15:25:22.857940 12600 layer_factory.hpp:77] Creating layer res4b2
I0514 15:25:22.857944 12600 net.cpp:100] Creating Layer res4b2
I0514 15:25:22.857947 12600 net.cpp:434] res4b2 <- res4b1_res4b1_relu_0_split_1
I0514 15:25:22.857949 12600 net.cpp:434] res4b2 <- res4b2_branch2c
I0514 15:25:22.857960 12600 net.cpp:408] res4b2 -> res4b2
I0514 15:25:22.857977 12600 net.cpp:150] Setting up res4b2
I0514 15:25:22.857981 12600 net.cpp:157] Top shape: 1 1024 19 19 (369664)
I0514 15:25:22.857983 12600 net.cpp:165] Memory required for data: 372930816
I0514 15:25:22.857986 12600 layer_factory.hpp:77] Creating layer res4b2_relu
I0514 15:25:22.857990 12600 net.cpp:100] Creating Layer res4b2_relu
I0514 15:25:22.857992 12600 net.cpp:434] res4b2_relu <- res4b2
I0514 15:25:22.857995 12600 net.cpp:395] res4b2_relu -> res4b2 (in-place)
I0514 15:25:22.858101 12600 net.cpp:150] Setting up res4b2_relu
I0514 15:25:22.858106 12600 net.cpp:157] Top shape: 1 1024 19 19 (369664)
I0514 15:25:22.858108 12600 net.cpp:165] Memory required for data: 374409472
I0514 15:25:22.858110 12600 layer_factory.hpp:77] Creating layer res4b2_res4b2_relu_0_split
I0514 15:25:22.858114 12600 net.cpp:100] Creating Layer res4b2_res4b2_relu_0_split
I0514 15:25:22.858117 12600 net.cpp:434] res4b2_res4b2_relu_0_split <- res4b2
I0514 15:25:22.858120 12600 net.cpp:408] res4b2_res4b2_relu_0_split -> res4b2_res4b2_relu_0_split_0
I0514 15:25:22.858125 12600 net.cpp:408] res4b2_res4b2_relu_0_split -> res4b2_res4b2_relu_0_split_1
I0514 15:25:22.858151 12600 net.cpp:150] Setting up res4b2_res4b2_relu_0_split
I0514 15:25:22.858155 12600 net.cpp:157] Top shape: 1 1024 19 19 (369664)
I0514 15:25:22.858157 12600 net.cpp:157] Top shape: 1 1024 19 19 (369664)
I0514 15:25:22.858160 12600 net.cpp:165] Memory required for data: 377366784
I0514 15:25:22.858161 12600 layer_factory.hpp:77] Creating layer res4b3_branch2a
I0514 15:25:22.858166 12600 net.cpp:100] Creating Layer res4b3_branch2a
I0514 15:25:22.858170 12600 net.cpp:434] res4b3_branch2a <- res4b2_res4b2_relu_0_split_0
I0514 15:25:22.858172 12600 net.cpp:408] res4b3_branch2a -> res4b3_branch2a
I0514 15:25:22.860532 12600 net.cpp:150] Setting up res4b3_branch2a
I0514 15:25:22.860539 12600 net.cpp:157] Top shape: 1 256 19 19 (92416)
I0514 15:25:22.860541 12600 net.cpp:165] Memory required for data: 377736448
I0514 15:25:22.860544 12600 layer_factory.hpp:77] Creating layer bn4b3_branch2a
I0514 15:25:22.860549 12600 net.cpp:100] Creating Layer bn4b3_branch2a
I0514 15:25:22.860553 12600 net.cpp:434] bn4b3_branch2a <- res4b3_branch2a
I0514 15:25:22.860555 12600 net.cpp:395] bn4b3_branch2a -> res4b3_branch2a (in-place)
I0514 15:25:22.860682 12600 net.cpp:150] Setting up bn4b3_branch2a
I0514 15:25:22.860687 12600 net.cpp:157] Top shape: 1 256 19 19 (92416)
I0514 15:25:22.860689 12600 net.cpp:165] Memory required for data: 378106112
I0514 15:25:22.860692 12600 layer_factory.hpp:77] Creating layer scale4b3_branch2a
I0514 15:25:22.860697 12600 net.cpp:100] Creating Layer scale4b3_branch2a
I0514 15:25:22.860699 12600 net.cpp:434] scale4b3_branch2a <- res4b3_branch2a
I0514 15:25:22.860702 12600 net.cpp:395] scale4b3_branch2a -> res4b3_branch2a (in-place)
I0514 15:25:22.860728 12600 layer_factory.hpp:77] Creating layer scale4b3_branch2a
I0514 15:25:22.860803 12600 net.cpp:150] Setting up scale4b3_branch2a
I0514 15:25:22.860807 12600 net.cpp:157] Top shape: 1 256 19 19 (92416)
I0514 15:25:22.860810 12600 net.cpp:165] Memory required for data: 378475776
I0514 15:25:22.860812 12600 layer_factory.hpp:77] Creating layer res4b3_branch2a_relu
I0514 15:25:22.860816 12600 net.cpp:100] Creating Layer res4b3_branch2a_relu
I0514 15:25:22.860818 12600 net.cpp:434] res4b3_branch2a_relu <- res4b3_branch2a
I0514 15:25:22.860821 12600 net.cpp:395] res4b3_branch2a_relu -> res4b3_branch2a (in-place)
I0514 15:25:22.860925 12600 net.cpp:150] Setting up res4b3_branch2a_relu
I0514 15:25:22.860930 12600 net.cpp:157] Top shape: 1 256 19 19 (92416)
I0514 15:25:22.860934 12600 net.cpp:165] Memory required for data: 378845440
I0514 15:25:22.860934 12600 layer_factory.hpp:77] Creating layer res4b3_branch2b
I0514 15:25:22.860939 12600 net.cpp:100] Creating Layer res4b3_branch2b
I0514 15:25:22.860941 12600 net.cpp:434] res4b3_branch2b <- res4b3_branch2a
I0514 15:25:22.860946 12600 net.cpp:408] res4b3_branch2b -> res4b3_branch2b
I0514 15:25:22.866199 12600 net.cpp:150] Setting up res4b3_branch2b
I0514 15:25:22.866215 12600 net.cpp:157] Top shape: 1 256 19 19 (92416)
I0514 15:25:22.866217 12600 net.cpp:165] Memory required for data: 379215104
I0514 15:25:22.866221 12600 layer_factory.hpp:77] Creating layer bn4b3_branch2b
I0514 15:25:22.866225 12600 net.cpp:100] Creating Layer bn4b3_branch2b
I0514 15:25:22.866227 12600 net.cpp:434] bn4b3_branch2b <- res4b3_branch2b
I0514 15:25:22.866231 12600 net.cpp:395] bn4b3_branch2b -> res4b3_branch2b (in-place)
I0514 15:25:22.866365 12600 net.cpp:150] Setting up bn4b3_branch2b
I0514 15:25:22.866369 12600 net.cpp:157] Top shape: 1 256 19 19 (92416)
I0514 15:25:22.866371 12600 net.cpp:165] Memory required for data: 379584768
I0514 15:25:22.866375 12600 layer_factory.hpp:77] Creating layer scale4b3_branch2b
I0514 15:25:22.866379 12600 net.cpp:100] Creating Layer scale4b3_branch2b
I0514 15:25:22.866381 12600 net.cpp:434] scale4b3_branch2b <- res4b3_branch2b
I0514 15:25:22.866386 12600 net.cpp:395] scale4b3_branch2b -> res4b3_branch2b (in-place)
I0514 15:25:22.866412 12600 layer_factory.hpp:77] Creating layer scale4b3_branch2b
I0514 15:25:22.866488 12600 net.cpp:150] Setting up scale4b3_branch2b
I0514 15:25:22.866492 12600 net.cpp:157] Top shape: 1 256 19 19 (92416)
I0514 15:25:22.866494 12600 net.cpp:165] Memory required for data: 379954432
I0514 15:25:22.866497 12600 layer_factory.hpp:77] Creating layer res4b3_branch2b_relu
I0514 15:25:22.866500 12600 net.cpp:100] Creating Layer res4b3_branch2b_relu
I0514 15:25:22.866503 12600 net.cpp:434] res4b3_branch2b_relu <- res4b3_branch2b
I0514 15:25:22.866506 12600 net.cpp:395] res4b3_branch2b_relu -> res4b3_branch2b (in-place)
I0514 15:25:22.866613 12600 net.cpp:150] Setting up res4b3_branch2b_relu
I0514 15:25:22.866619 12600 net.cpp:157] Top shape: 1 256 19 19 (92416)
I0514 15:25:22.866621 12600 net.cpp:165] Memory required for data: 380324096
I0514 15:25:22.866623 12600 layer_factory.hpp:77] Creating layer res4b3_branch2c
I0514 15:25:22.866628 12600 net.cpp:100] Creating Layer res4b3_branch2c
I0514 15:25:22.866631 12600 net.cpp:434] res4b3_branch2c <- res4b3_branch2b
I0514 15:25:22.866636 12600 net.cpp:408] res4b3_branch2c -> res4b3_branch2c
I0514 15:25:22.869489 12600 net.cpp:150] Setting up res4b3_branch2c
I0514 15:25:22.869498 12600 net.cpp:157] Top shape: 1 1024 19 19 (369664)
I0514 15:25:22.869500 12600 net.cpp:165] Memory required for data: 381802752
I0514 15:25:22.869503 12600 layer_factory.hpp:77] Creating layer bn4b3_branch2c
I0514 15:25:22.869508 12600 net.cpp:100] Creating Layer bn4b3_branch2c
I0514 15:25:22.869510 12600 net.cpp:434] bn4b3_branch2c <- res4b3_branch2c
I0514 15:25:22.869513 12600 net.cpp:395] bn4b3_branch2c -> res4b3_branch2c (in-place)
I0514 15:25:22.869644 12600 net.cpp:150] Setting up bn4b3_branch2c
I0514 15:25:22.869649 12600 net.cpp:157] Top shape: 1 1024 19 19 (369664)
I0514 15:25:22.869650 12600 net.cpp:165] Memory required for data: 383281408
I0514 15:25:22.869655 12600 layer_factory.hpp:77] Creating layer scale4b3_branch2c
I0514 15:25:22.869659 12600 net.cpp:100] Creating Layer scale4b3_branch2c
I0514 15:25:22.869662 12600 net.cpp:434] scale4b3_branch2c <- res4b3_branch2c
I0514 15:25:22.869664 12600 net.cpp:395] scale4b3_branch2c -> res4b3_branch2c (in-place)
I0514 15:25:22.869691 12600 layer_factory.hpp:77] Creating layer scale4b3_branch2c
I0514 15:25:22.869765 12600 net.cpp:150] Setting up scale4b3_branch2c
I0514 15:25:22.869768 12600 net.cpp:157] Top shape: 1 1024 19 19 (369664)
I0514 15:25:22.869771 12600 net.cpp:165] Memory required for data: 384760064
I0514 15:25:22.869774 12600 layer_factory.hpp:77] Creating layer res4b3
I0514 15:25:22.869777 12600 net.cpp:100] Creating Layer res4b3
I0514 15:25:22.869781 12600 net.cpp:434] res4b3 <- res4b2_res4b2_relu_0_split_1
I0514 15:25:22.869782 12600 net.cpp:434] res4b3 <- res4b3_branch2c
I0514 15:25:22.869787 12600 net.cpp:408] res4b3 -> res4b3
I0514 15:25:22.869803 12600 net.cpp:150] Setting up res4b3
I0514 15:25:22.869807 12600 net.cpp:157] Top shape: 1 1024 19 19 (369664)
I0514 15:25:22.869809 12600 net.cpp:165] Memory required for data: 386238720
I0514 15:25:22.869819 12600 layer_factory.hpp:77] Creating layer res4b3_relu
I0514 15:25:22.869822 12600 net.cpp:100] Creating Layer res4b3_relu
I0514 15:25:22.869824 12600 net.cpp:434] res4b3_relu <- res4b3
I0514 15:25:22.869827 12600 net.cpp:395] res4b3_relu -> res4b3 (in-place)
I0514 15:25:22.870307 12600 net.cpp:150] Setting up res4b3_relu
I0514 15:25:22.870316 12600 net.cpp:157] Top shape: 1 1024 19 19 (369664)
I0514 15:25:22.870317 12600 net.cpp:165] Memory required for data: 387717376
I0514 15:25:22.870319 12600 layer_factory.hpp:77] Creating layer res4b3_res4b3_relu_0_split
I0514 15:25:22.870323 12600 net.cpp:100] Creating Layer res4b3_res4b3_relu_0_split
I0514 15:25:22.870326 12600 net.cpp:434] res4b3_res4b3_relu_0_split <- res4b3
I0514 15:25:22.870329 12600 net.cpp:408] res4b3_res4b3_relu_0_split -> res4b3_res4b3_relu_0_split_0
I0514 15:25:22.870334 12600 net.cpp:408] res4b3_res4b3_relu_0_split -> res4b3_res4b3_relu_0_split_1
I0514 15:25:22.870363 12600 net.cpp:150] Setting up res4b3_res4b3_relu_0_split
I0514 15:25:22.870368 12600 net.cpp:157] Top shape: 1 1024 19 19 (369664)
I0514 15:25:22.870370 12600 net.cpp:157] Top shape: 1 1024 19 19 (369664)
I0514 15:25:22.870373 12600 net.cpp:165] Memory required for data: 390674688
I0514 15:25:22.870374 12600 layer_factory.hpp:77] Creating layer res4b4_branch2a
I0514 15:25:22.870379 12600 net.cpp:100] Creating Layer res4b4_branch2a
I0514 15:25:22.870381 12600 net.cpp:434] res4b4_branch2a <- res4b3_res4b3_relu_0_split_0
I0514 15:25:22.870385 12600 net.cpp:408] res4b4_branch2a -> res4b4_branch2a
I0514 15:25:22.872416 12600 net.cpp:150] Setting up res4b4_branch2a
I0514 15:25:22.872424 12600 net.cpp:157] Top shape: 1 256 19 19 (92416)
I0514 15:25:22.872427 12600 net.cpp:165] Memory required for data: 391044352
I0514 15:25:22.872429 12600 layer_factory.hpp:77] Creating layer bn4b4_branch2a
I0514 15:25:22.872433 12600 net.cpp:100] Creating Layer bn4b4_branch2a
I0514 15:25:22.872437 12600 net.cpp:434] bn4b4_branch2a <- res4b4_branch2a
I0514 15:25:22.872440 12600 net.cpp:395] bn4b4_branch2a -> res4b4_branch2a (in-place)
I0514 15:25:22.872571 12600 net.cpp:150] Setting up bn4b4_branch2a
I0514 15:25:22.872576 12600 net.cpp:157] Top shape: 1 256 19 19 (92416)
I0514 15:25:22.872578 12600 net.cpp:165] Memory required for data: 391414016
I0514 15:25:22.872581 12600 layer_factory.hpp:77] Creating layer scale4b4_branch2a
I0514 15:25:22.872586 12600 net.cpp:100] Creating Layer scale4b4_branch2a
I0514 15:25:22.872588 12600 net.cpp:434] scale4b4_branch2a <- res4b4_branch2a
I0514 15:25:22.872591 12600 net.cpp:395] scale4b4_branch2a -> res4b4_branch2a (in-place)
I0514 15:25:22.872617 12600 layer_factory.hpp:77] Creating layer scale4b4_branch2a
I0514 15:25:22.872690 12600 net.cpp:150] Setting up scale4b4_branch2a
I0514 15:25:22.872695 12600 net.cpp:157] Top shape: 1 256 19 19 (92416)
I0514 15:25:22.872697 12600 net.cpp:165] Memory required for data: 391783680
I0514 15:25:22.872700 12600 layer_factory.hpp:77] Creating layer res4b4_branch2a_relu
I0514 15:25:22.872704 12600 net.cpp:100] Creating Layer res4b4_branch2a_relu
I0514 15:25:22.872705 12600 net.cpp:434] res4b4_branch2a_relu <- res4b4_branch2a
I0514 15:25:22.872709 12600 net.cpp:395] res4b4_branch2a_relu -> res4b4_branch2a (in-place)
I0514 15:25:22.873147 12600 net.cpp:150] Setting up res4b4_branch2a_relu
I0514 15:25:22.873154 12600 net.cpp:157] Top shape: 1 256 19 19 (92416)
I0514 15:25:22.873157 12600 net.cpp:165] Memory required for data: 392153344
I0514 15:25:22.873158 12600 layer_factory.hpp:77] Creating layer res4b4_branch2b
I0514 15:25:22.873164 12600 net.cpp:100] Creating Layer res4b4_branch2b
I0514 15:25:22.873167 12600 net.cpp:434] res4b4_branch2b <- res4b4_branch2a
I0514 15:25:22.873170 12600 net.cpp:408] res4b4_branch2b -> res4b4_branch2b
I0514 15:25:22.878371 12600 net.cpp:150] Setting up res4b4_branch2b
I0514 15:25:22.878379 12600 net.cpp:157] Top shape: 1 256 19 19 (92416)
I0514 15:25:22.878381 12600 net.cpp:165] Memory required for data: 392523008
I0514 15:25:22.878386 12600 layer_factory.hpp:77] Creating layer bn4b4_branch2b
I0514 15:25:22.878396 12600 net.cpp:100] Creating Layer bn4b4_branch2b
I0514 15:25:22.878399 12600 net.cpp:434] bn4b4_branch2b <- res4b4_branch2b
I0514 15:25:22.878402 12600 net.cpp:395] bn4b4_branch2b -> res4b4_branch2b (in-place)
I0514 15:25:22.878541 12600 net.cpp:150] Setting up bn4b4_branch2b
I0514 15:25:22.878545 12600 net.cpp:157] Top shape: 1 256 19 19 (92416)
I0514 15:25:22.878547 12600 net.cpp:165] Memory required for data: 392892672
I0514 15:25:22.878551 12600 layer_factory.hpp:77] Creating layer scale4b4_branch2b
I0514 15:25:22.878556 12600 net.cpp:100] Creating Layer scale4b4_branch2b
I0514 15:25:22.878558 12600 net.cpp:434] scale4b4_branch2b <- res4b4_branch2b
I0514 15:25:22.878561 12600 net.cpp:395] scale4b4_branch2b -> res4b4_branch2b (in-place)
I0514 15:25:22.878587 12600 layer_factory.hpp:77] Creating layer scale4b4_branch2b
I0514 15:25:22.878662 12600 net.cpp:150] Setting up scale4b4_branch2b
I0514 15:25:22.878667 12600 net.cpp:157] Top shape: 1 256 19 19 (92416)
I0514 15:25:22.878669 12600 net.cpp:165] Memory required for data: 393262336
I0514 15:25:22.878672 12600 layer_factory.hpp:77] Creating layer res4b4_branch2b_relu
I0514 15:25:22.878675 12600 net.cpp:100] Creating Layer res4b4_branch2b_relu
I0514 15:25:22.878677 12600 net.cpp:434] res4b4_branch2b_relu <- res4b4_branch2b
I0514 15:25:22.878679 12600 net.cpp:395] res4b4_branch2b_relu -> res4b4_branch2b (in-place)
I0514 15:25:22.878788 12600 net.cpp:150] Setting up res4b4_branch2b_relu
I0514 15:25:22.878794 12600 net.cpp:157] Top shape: 1 256 19 19 (92416)
I0514 15:25:22.878795 12600 net.cpp:165] Memory required for data: 393632000
I0514 15:25:22.878798 12600 layer_factory.hpp:77] Creating layer res4b4_branch2c
I0514 15:25:22.878801 12600 net.cpp:100] Creating Layer res4b4_branch2c
I0514 15:25:22.878804 12600 net.cpp:434] res4b4_branch2c <- res4b4_branch2b
I0514 15:25:22.878808 12600 net.cpp:408] res4b4_branch2c -> res4b4_branch2c
I0514 15:25:22.881681 12600 net.cpp:150] Setting up res4b4_branch2c
I0514 15:25:22.881690 12600 net.cpp:157] Top shape: 1 1024 19 19 (369664)
I0514 15:25:22.881692 12600 net.cpp:165] Memory required for data: 395110656
I0514 15:25:22.881695 12600 layer_factory.hpp:77] Creating layer bn4b4_branch2c
I0514 15:25:22.881698 12600 net.cpp:100] Creating Layer bn4b4_branch2c
I0514 15:25:22.881700 12600 net.cpp:434] bn4b4_branch2c <- res4b4_branch2c
I0514 15:25:22.881705 12600 net.cpp:395] bn4b4_branch2c -> res4b4_branch2c (in-place)
I0514 15:25:22.881839 12600 net.cpp:150] Setting up bn4b4_branch2c
I0514 15:25:22.881842 12600 net.cpp:157] Top shape: 1 1024 19 19 (369664)
I0514 15:25:22.881844 12600 net.cpp:165] Memory required for data: 396589312
I0514 15:25:22.881847 12600 layer_factory.hpp:77] Creating layer scale4b4_branch2c
I0514 15:25:22.881851 12600 net.cpp:100] Creating Layer scale4b4_branch2c
I0514 15:25:22.881853 12600 net.cpp:434] scale4b4_branch2c <- res4b4_branch2c
I0514 15:25:22.881855 12600 net.cpp:395] scale4b4_branch2c -> res4b4_branch2c (in-place)
I0514 15:25:22.881882 12600 layer_factory.hpp:77] Creating layer scale4b4_branch2c
I0514 15:25:22.881955 12600 net.cpp:150] Setting up scale4b4_branch2c
I0514 15:25:22.881959 12600 net.cpp:157] Top shape: 1 1024 19 19 (369664)
I0514 15:25:22.881961 12600 net.cpp:165] Memory required for data: 398067968
I0514 15:25:22.881964 12600 layer_factory.hpp:77] Creating layer res4b4
I0514 15:25:22.881968 12600 net.cpp:100] Creating Layer res4b4
I0514 15:25:22.881969 12600 net.cpp:434] res4b4 <- res4b3_res4b3_relu_0_split_1
I0514 15:25:22.881971 12600 net.cpp:434] res4b4 <- res4b4_branch2c
I0514 15:25:22.881975 12600 net.cpp:408] res4b4 -> res4b4
I0514 15:25:22.881990 12600 net.cpp:150] Setting up res4b4
I0514 15:25:22.881994 12600 net.cpp:157] Top shape: 1 1024 19 19 (369664)
I0514 15:25:22.881995 12600 net.cpp:165] Memory required for data: 399546624
I0514 15:25:22.881997 12600 layer_factory.hpp:77] Creating layer res4b4_relu
I0514 15:25:22.882000 12600 net.cpp:100] Creating Layer res4b4_relu
I0514 15:25:22.882001 12600 net.cpp:434] res4b4_relu <- res4b4
I0514 15:25:22.882010 12600 net.cpp:395] res4b4_relu -> res4b4 (in-place)
I0514 15:25:22.882120 12600 net.cpp:150] Setting up res4b4_relu
I0514 15:25:22.882124 12600 net.cpp:157] Top shape: 1 1024 19 19 (369664)
I0514 15:25:22.882125 12600 net.cpp:165] Memory required for data: 401025280
I0514 15:25:22.882128 12600 layer_factory.hpp:77] Creating layer res4b4_res4b4_relu_0_split
I0514 15:25:22.882131 12600 net.cpp:100] Creating Layer res4b4_res4b4_relu_0_split
I0514 15:25:22.882133 12600 net.cpp:434] res4b4_res4b4_relu_0_split <- res4b4
I0514 15:25:22.882136 12600 net.cpp:408] res4b4_res4b4_relu_0_split -> res4b4_res4b4_relu_0_split_0
I0514 15:25:22.882139 12600 net.cpp:408] res4b4_res4b4_relu_0_split -> res4b4_res4b4_relu_0_split_1
I0514 15:25:22.882167 12600 net.cpp:150] Setting up res4b4_res4b4_relu_0_split
I0514 15:25:22.882170 12600 net.cpp:157] Top shape: 1 1024 19 19 (369664)
I0514 15:25:22.882172 12600 net.cpp:157] Top shape: 1 1024 19 19 (369664)
I0514 15:25:22.882174 12600 net.cpp:165] Memory required for data: 403982592
I0514 15:25:22.882175 12600 layer_factory.hpp:77] Creating layer res4b5_branch2a
I0514 15:25:22.882180 12600 net.cpp:100] Creating Layer res4b5_branch2a
I0514 15:25:22.882182 12600 net.cpp:434] res4b5_branch2a <- res4b4_res4b4_relu_0_split_0
I0514 15:25:22.882186 12600 net.cpp:408] res4b5_branch2a -> res4b5_branch2a
I0514 15:25:22.884587 12600 net.cpp:150] Setting up res4b5_branch2a
I0514 15:25:22.884594 12600 net.cpp:157] Top shape: 1 256 19 19 (92416)
I0514 15:25:22.884596 12600 net.cpp:165] Memory required for data: 404352256
I0514 15:25:22.884599 12600 layer_factory.hpp:77] Creating layer bn4b5_branch2a
I0514 15:25:22.884603 12600 net.cpp:100] Creating Layer bn4b5_branch2a
I0514 15:25:22.884604 12600 net.cpp:434] bn4b5_branch2a <- res4b5_branch2a
I0514 15:25:22.884608 12600 net.cpp:395] bn4b5_branch2a -> res4b5_branch2a (in-place)
I0514 15:25:22.884740 12600 net.cpp:150] Setting up bn4b5_branch2a
I0514 15:25:22.884744 12600 net.cpp:157] Top shape: 1 256 19 19 (92416)
I0514 15:25:22.884745 12600 net.cpp:165] Memory required for data: 404721920
I0514 15:25:22.884749 12600 layer_factory.hpp:77] Creating layer scale4b5_branch2a
I0514 15:25:22.884753 12600 net.cpp:100] Creating Layer scale4b5_branch2a
I0514 15:25:22.884755 12600 net.cpp:434] scale4b5_branch2a <- res4b5_branch2a
I0514 15:25:22.884758 12600 net.cpp:395] scale4b5_branch2a -> res4b5_branch2a (in-place)
I0514 15:25:22.884783 12600 layer_factory.hpp:77] Creating layer scale4b5_branch2a
I0514 15:25:22.884860 12600 net.cpp:150] Setting up scale4b5_branch2a
I0514 15:25:22.884863 12600 net.cpp:157] Top shape: 1 256 19 19 (92416)
I0514 15:25:22.884865 12600 net.cpp:165] Memory required for data: 405091584
I0514 15:25:22.884867 12600 layer_factory.hpp:77] Creating layer res4b5_branch2a_relu
I0514 15:25:22.884871 12600 net.cpp:100] Creating Layer res4b5_branch2a_relu
I0514 15:25:22.884872 12600 net.cpp:434] res4b5_branch2a_relu <- res4b5_branch2a
I0514 15:25:22.884876 12600 net.cpp:395] res4b5_branch2a_relu -> res4b5_branch2a (in-place)
I0514 15:25:22.884982 12600 net.cpp:150] Setting up res4b5_branch2a_relu
I0514 15:25:22.884986 12600 net.cpp:157] Top shape: 1 256 19 19 (92416)
I0514 15:25:22.884989 12600 net.cpp:165] Memory required for data: 405461248
I0514 15:25:22.884990 12600 layer_factory.hpp:77] Creating layer res4b5_branch2b
I0514 15:25:22.884995 12600 net.cpp:100] Creating Layer res4b5_branch2b
I0514 15:25:22.884997 12600 net.cpp:434] res4b5_branch2b <- res4b5_branch2a
I0514 15:25:22.885000 12600 net.cpp:408] res4b5_branch2b -> res4b5_branch2b
I0514 15:25:22.890210 12600 net.cpp:150] Setting up res4b5_branch2b
I0514 15:25:22.890218 12600 net.cpp:157] Top shape: 1 256 19 19 (92416)
I0514 15:25:22.890219 12600 net.cpp:165] Memory required for data: 405830912
I0514 15:25:22.890223 12600 layer_factory.hpp:77] Creating layer bn4b5_branch2b
I0514 15:25:22.890226 12600 net.cpp:100] Creating Layer bn4b5_branch2b
I0514 15:25:22.890228 12600 net.cpp:434] bn4b5_branch2b <- res4b5_branch2b
I0514 15:25:22.890233 12600 net.cpp:395] bn4b5_branch2b -> res4b5_branch2b (in-place)
I0514 15:25:22.890377 12600 net.cpp:150] Setting up bn4b5_branch2b
I0514 15:25:22.890382 12600 net.cpp:157] Top shape: 1 256 19 19 (92416)
I0514 15:25:22.890383 12600 net.cpp:165] Memory required for data: 406200576
I0514 15:25:22.890386 12600 layer_factory.hpp:77] Creating layer scale4b5_branch2b
I0514 15:25:22.890390 12600 net.cpp:100] Creating Layer scale4b5_branch2b
I0514 15:25:22.890393 12600 net.cpp:434] scale4b5_branch2b <- res4b5_branch2b
I0514 15:25:22.890398 12600 net.cpp:395] scale4b5_branch2b -> res4b5_branch2b (in-place)
I0514 15:25:22.890421 12600 layer_factory.hpp:77] Creating layer scale4b5_branch2b
I0514 15:25:22.890501 12600 net.cpp:150] Setting up scale4b5_branch2b
I0514 15:25:22.890503 12600 net.cpp:157] Top shape: 1 256 19 19 (92416)
I0514 15:25:22.890506 12600 net.cpp:165] Memory required for data: 406570240
I0514 15:25:22.890507 12600 layer_factory.hpp:77] Creating layer res4b5_branch2b_relu
I0514 15:25:22.890511 12600 net.cpp:100] Creating Layer res4b5_branch2b_relu
I0514 15:25:22.890512 12600 net.cpp:434] res4b5_branch2b_relu <- res4b5_branch2b
I0514 15:25:22.890516 12600 net.cpp:395] res4b5_branch2b_relu -> res4b5_branch2b (in-place)
I0514 15:25:22.890628 12600 net.cpp:150] Setting up res4b5_branch2b_relu
I0514 15:25:22.890632 12600 net.cpp:157] Top shape: 1 256 19 19 (92416)
I0514 15:25:22.890635 12600 net.cpp:165] Memory required for data: 406939904
I0514 15:25:22.890636 12600 layer_factory.hpp:77] Creating layer res4b5_branch2c
I0514 15:25:22.890641 12600 net.cpp:100] Creating Layer res4b5_branch2c
I0514 15:25:22.890643 12600 net.cpp:434] res4b5_branch2c <- res4b5_branch2b
I0514 15:25:22.890647 12600 net.cpp:408] res4b5_branch2c -> res4b5_branch2c
I0514 15:25:22.893532 12600 net.cpp:150] Setting up res4b5_branch2c
I0514 15:25:22.893538 12600 net.cpp:157] Top shape: 1 1024 19 19 (369664)
I0514 15:25:22.893540 12600 net.cpp:165] Memory required for data: 408418560
I0514 15:25:22.893543 12600 layer_factory.hpp:77] Creating layer bn4b5_branch2c
I0514 15:25:22.893548 12600 net.cpp:100] Creating Layer bn4b5_branch2c
I0514 15:25:22.893549 12600 net.cpp:434] bn4b5_branch2c <- res4b5_branch2c
I0514 15:25:22.893553 12600 net.cpp:395] bn4b5_branch2c -> res4b5_branch2c (in-place)
I0514 15:25:22.893689 12600 net.cpp:150] Setting up bn4b5_branch2c
I0514 15:25:22.893692 12600 net.cpp:157] Top shape: 1 1024 19 19 (369664)
I0514 15:25:22.893694 12600 net.cpp:165] Memory required for data: 409897216
I0514 15:25:22.893697 12600 layer_factory.hpp:77] Creating layer scale4b5_branch2c
I0514 15:25:22.893702 12600 net.cpp:100] Creating Layer scale4b5_branch2c
I0514 15:25:22.893703 12600 net.cpp:434] scale4b5_branch2c <- res4b5_branch2c
I0514 15:25:22.893707 12600 net.cpp:395] scale4b5_branch2c -> res4b5_branch2c (in-place)
I0514 15:25:22.893733 12600 layer_factory.hpp:77] Creating layer scale4b5_branch2c
I0514 15:25:22.893808 12600 net.cpp:150] Setting up scale4b5_branch2c
I0514 15:25:22.893812 12600 net.cpp:157] Top shape: 1 1024 19 19 (369664)
I0514 15:25:22.893813 12600 net.cpp:165] Memory required for data: 411375872
I0514 15:25:22.893833 12600 layer_factory.hpp:77] Creating layer res4b5
I0514 15:25:22.893837 12600 net.cpp:100] Creating Layer res4b5
I0514 15:25:22.893839 12600 net.cpp:434] res4b5 <- res4b4_res4b4_relu_0_split_1
I0514 15:25:22.893841 12600 net.cpp:434] res4b5 <- res4b5_branch2c
I0514 15:25:22.893844 12600 net.cpp:408] res4b5 -> res4b5
I0514 15:25:22.893862 12600 net.cpp:150] Setting up res4b5
I0514 15:25:22.893864 12600 net.cpp:157] Top shape: 1 1024 19 19 (369664)
I0514 15:25:22.893865 12600 net.cpp:165] Memory required for data: 412854528
I0514 15:25:22.893867 12600 layer_factory.hpp:77] Creating layer res4b5_relu
I0514 15:25:22.893870 12600 net.cpp:100] Creating Layer res4b5_relu
I0514 15:25:22.893872 12600 net.cpp:434] res4b5_relu <- res4b5
I0514 15:25:22.893874 12600 net.cpp:395] res4b5_relu -> res4b5 (in-place)
I0514 15:25:22.894321 12600 net.cpp:150] Setting up res4b5_relu
I0514 15:25:22.894328 12600 net.cpp:157] Top shape: 1 1024 19 19 (369664)
I0514 15:25:22.894337 12600 net.cpp:165] Memory required for data: 414333184
I0514 15:25:22.894340 12600 layer_factory.hpp:77] Creating layer res4b5_res4b5_relu_0_split
I0514 15:25:22.894342 12600 net.cpp:100] Creating Layer res4b5_res4b5_relu_0_split
I0514 15:25:22.894345 12600 net.cpp:434] res4b5_res4b5_relu_0_split <- res4b5
I0514 15:25:22.894348 12600 net.cpp:408] res4b5_res4b5_relu_0_split -> res4b5_res4b5_relu_0_split_0
I0514 15:25:22.894352 12600 net.cpp:408] res4b5_res4b5_relu_0_split -> res4b5_res4b5_relu_0_split_1
I0514 15:25:22.894382 12600 net.cpp:150] Setting up res4b5_res4b5_relu_0_split
I0514 15:25:22.894387 12600 net.cpp:157] Top shape: 1 1024 19 19 (369664)
I0514 15:25:22.894388 12600 net.cpp:157] Top shape: 1 1024 19 19 (369664)
I0514 15:25:22.894389 12600 net.cpp:165] Memory required for data: 417290496
I0514 15:25:22.894392 12600 layer_factory.hpp:77] Creating layer res4b6_branch2a
I0514 15:25:22.894397 12600 net.cpp:100] Creating Layer res4b6_branch2a
I0514 15:25:22.894398 12600 net.cpp:434] res4b6_branch2a <- res4b5_res4b5_relu_0_split_0
I0514 15:25:22.894402 12600 net.cpp:408] res4b6_branch2a -> res4b6_branch2a
I0514 15:25:22.896451 12600 net.cpp:150] Setting up res4b6_branch2a
I0514 15:25:22.896457 12600 net.cpp:157] Top shape: 1 256 19 19 (92416)
I0514 15:25:22.896459 12600 net.cpp:165] Memory required for data: 417660160
I0514 15:25:22.896462 12600 layer_factory.hpp:77] Creating layer bn4b6_branch2a
I0514 15:25:22.896466 12600 net.cpp:100] Creating Layer bn4b6_branch2a
I0514 15:25:22.896468 12600 net.cpp:434] bn4b6_branch2a <- res4b6_branch2a
I0514 15:25:22.896471 12600 net.cpp:395] bn4b6_branch2a -> res4b6_branch2a (in-place)
I0514 15:25:22.896606 12600 net.cpp:150] Setting up bn4b6_branch2a
I0514 15:25:22.896611 12600 net.cpp:157] Top shape: 1 256 19 19 (92416)
I0514 15:25:22.896613 12600 net.cpp:165] Memory required for data: 418029824
I0514 15:25:22.896616 12600 layer_factory.hpp:77] Creating layer scale4b6_branch2a
I0514 15:25:22.896620 12600 net.cpp:100] Creating Layer scale4b6_branch2a
I0514 15:25:22.896621 12600 net.cpp:434] scale4b6_branch2a <- res4b6_branch2a
I0514 15:25:22.896625 12600 net.cpp:395] scale4b6_branch2a -> res4b6_branch2a (in-place)
I0514 15:25:22.896651 12600 layer_factory.hpp:77] Creating layer scale4b6_branch2a
I0514 15:25:22.896726 12600 net.cpp:150] Setting up scale4b6_branch2a
I0514 15:25:22.896729 12600 net.cpp:157] Top shape: 1 256 19 19 (92416)
I0514 15:25:22.896731 12600 net.cpp:165] Memory required for data: 418399488
I0514 15:25:22.896734 12600 layer_factory.hpp:77] Creating layer res4b6_branch2a_relu
I0514 15:25:22.896737 12600 net.cpp:100] Creating Layer res4b6_branch2a_relu
I0514 15:25:22.896739 12600 net.cpp:434] res4b6_branch2a_relu <- res4b6_branch2a
I0514 15:25:22.896742 12600 net.cpp:395] res4b6_branch2a_relu -> res4b6_branch2a (in-place)
I0514 15:25:22.897186 12600 net.cpp:150] Setting up res4b6_branch2a_relu
I0514 15:25:22.897192 12600 net.cpp:157] Top shape: 1 256 19 19 (92416)
I0514 15:25:22.897193 12600 net.cpp:165] Memory required for data: 418769152
I0514 15:25:22.897197 12600 layer_factory.hpp:77] Creating layer res4b6_branch2b
I0514 15:25:22.897202 12600 net.cpp:100] Creating Layer res4b6_branch2b
I0514 15:25:22.897203 12600 net.cpp:434] res4b6_branch2b <- res4b6_branch2a
I0514 15:25:22.897207 12600 net.cpp:408] res4b6_branch2b -> res4b6_branch2b
I0514 15:25:22.902400 12600 net.cpp:150] Setting up res4b6_branch2b
I0514 15:25:22.902407 12600 net.cpp:157] Top shape: 1 256 19 19 (92416)
I0514 15:25:22.902408 12600 net.cpp:165] Memory required for data: 419138816
I0514 15:25:22.902411 12600 layer_factory.hpp:77] Creating layer bn4b6_branch2b
I0514 15:25:22.902416 12600 net.cpp:100] Creating Layer bn4b6_branch2b
I0514 15:25:22.902418 12600 net.cpp:434] bn4b6_branch2b <- res4b6_branch2b
I0514 15:25:22.902421 12600 net.cpp:395] bn4b6_branch2b -> res4b6_branch2b (in-place)
I0514 15:25:22.902560 12600 net.cpp:150] Setting up bn4b6_branch2b
I0514 15:25:22.902565 12600 net.cpp:157] Top shape: 1 256 19 19 (92416)
I0514 15:25:22.902566 12600 net.cpp:165] Memory required for data: 419508480
I0514 15:25:22.902577 12600 layer_factory.hpp:77] Creating layer scale4b6_branch2b
I0514 15:25:22.902581 12600 net.cpp:100] Creating Layer scale4b6_branch2b
I0514 15:25:22.902585 12600 net.cpp:434] scale4b6_branch2b <- res4b6_branch2b
I0514 15:25:22.902586 12600 net.cpp:395] scale4b6_branch2b -> res4b6_branch2b (in-place)
I0514 15:25:22.902614 12600 layer_factory.hpp:77] Creating layer scale4b6_branch2b
I0514 15:25:22.902691 12600 net.cpp:150] Setting up scale4b6_branch2b
I0514 15:25:22.902695 12600 net.cpp:157] Top shape: 1 256 19 19 (92416)
I0514 15:25:22.902698 12600 net.cpp:165] Memory required for data: 419878144
I0514 15:25:22.902700 12600 layer_factory.hpp:77] Creating layer res4b6_branch2b_relu
I0514 15:25:22.902704 12600 net.cpp:100] Creating Layer res4b6_branch2b_relu
I0514 15:25:22.902705 12600 net.cpp:434] res4b6_branch2b_relu <- res4b6_branch2b
I0514 15:25:22.902709 12600 net.cpp:395] res4b6_branch2b_relu -> res4b6_branch2b (in-place)
I0514 15:25:22.902819 12600 net.cpp:150] Setting up res4b6_branch2b_relu
I0514 15:25:22.902823 12600 net.cpp:157] Top shape: 1 256 19 19 (92416)
I0514 15:25:22.902825 12600 net.cpp:165] Memory required for data: 420247808
I0514 15:25:22.902827 12600 layer_factory.hpp:77] Creating layer res4b6_branch2c
I0514 15:25:22.902832 12600 net.cpp:100] Creating Layer res4b6_branch2c
I0514 15:25:22.902834 12600 net.cpp:434] res4b6_branch2c <- res4b6_branch2b
I0514 15:25:22.902838 12600 net.cpp:408] res4b6_branch2c -> res4b6_branch2c
I0514 15:25:22.905732 12600 net.cpp:150] Setting up res4b6_branch2c
I0514 15:25:22.905740 12600 net.cpp:157] Top shape: 1 1024 19 19 (369664)
I0514 15:25:22.905741 12600 net.cpp:165] Memory required for data: 421726464
I0514 15:25:22.905745 12600 layer_factory.hpp:77] Creating layer bn4b6_branch2c
I0514 15:25:22.905750 12600 net.cpp:100] Creating Layer bn4b6_branch2c
I0514 15:25:22.905751 12600 net.cpp:434] bn4b6_branch2c <- res4b6_branch2c
I0514 15:25:22.905753 12600 net.cpp:395] bn4b6_branch2c -> res4b6_branch2c (in-place)
I0514 15:25:22.905895 12600 net.cpp:150] Setting up bn4b6_branch2c
I0514 15:25:22.905899 12600 net.cpp:157] Top shape: 1 1024 19 19 (369664)
I0514 15:25:22.905900 12600 net.cpp:165] Memory required for data: 423205120
I0514 15:25:22.905903 12600 layer_factory.hpp:77] Creating layer scale4b6_branch2c
I0514 15:25:22.905907 12600 net.cpp:100] Creating Layer scale4b6_branch2c
I0514 15:25:22.905910 12600 net.cpp:434] scale4b6_branch2c <- res4b6_branch2c
I0514 15:25:22.905912 12600 net.cpp:395] scale4b6_branch2c -> res4b6_branch2c (in-place)
I0514 15:25:22.905941 12600 layer_factory.hpp:77] Creating layer scale4b6_branch2c
I0514 15:25:22.906018 12600 net.cpp:150] Setting up scale4b6_branch2c
I0514 15:25:22.906023 12600 net.cpp:157] Top shape: 1 1024 19 19 (369664)
I0514 15:25:22.906023 12600 net.cpp:165] Memory required for data: 424683776
I0514 15:25:22.906026 12600 layer_factory.hpp:77] Creating layer res4b6
I0514 15:25:22.906030 12600 net.cpp:100] Creating Layer res4b6
…
I0514 15:25:23.410014 12600 net.cpp:408] res5c_relu/conv1_1 -> res5c_relu/conv1_1
I0514 15:25:23.414723 12600 net.cpp:150] Setting up res5c_relu/conv1_1
I0514 15:25:23.414732 12600 net.cpp:157] Top shape: 1 256 19 19 (92416)
I0514 15:25:23.414734 12600 net.cpp:165] Memory required for data: 738528512
I0514 15:25:23.414747 12600 layer_factory.hpp:77] Creating layer res5c_relu/conv1_1_bn
I0514 15:25:23.414753 12600 net.cpp:100] Creating Layer res5c_relu/conv1_1_bn
I0514 15:25:23.414757 12600 net.cpp:434] res5c_relu/conv1_1_bn <- res5c_relu/conv1_1
I0514 15:25:23.414760 12600 net.cpp:395] res5c_relu/conv1_1_bn -> res5c_relu/conv1_1 (in-place)
I0514 15:25:23.414958 12600 net.cpp:150] Setting up res5c_relu/conv1_1_bn
I0514 15:25:23.414963 12600 net.cpp:157] Top shape: 1 256 19 19 (92416)
I0514 15:25:23.414965 12600 net.cpp:165] Memory required for data: 738898176
I0514 15:25:23.414970 12600 layer_factory.hpp:77] Creating layer res5c_relu/conv1_1_scale
I0514 15:25:23.414974 12600 net.cpp:100] Creating Layer res5c_relu/conv1_1_scale
I0514 15:25:23.414978 12600 net.cpp:434] res5c_relu/conv1_1_scale <- res5c_relu/conv1_1
I0514 15:25:23.414980 12600 net.cpp:395] res5c_relu/conv1_1_scale -> res5c_relu/conv1_1 (in-place)
I0514 15:25:23.415016 12600 layer_factory.hpp:77] Creating layer res5c_relu/conv1_1_scale
I0514 15:25:23.415123 12600 net.cpp:150] Setting up res5c_relu/conv1_1_scale
I0514 15:25:23.415128 12600 net.cpp:157] Top shape: 1 256 19 19 (92416)
I0514 15:25:23.415130 12600 net.cpp:165] Memory required for data: 739267840
I0514 15:25:23.415134 12600 layer_factory.hpp:77] Creating layer res5c_relu/conv1_1_relu
I0514 15:25:23.415138 12600 net.cpp:100] Creating Layer res5c_relu/conv1_1_relu
I0514 15:25:23.415139 12600 net.cpp:434] res5c_relu/conv1_1_relu <- res5c_relu/conv1_1
I0514 15:25:23.415143 12600 net.cpp:395] res5c_relu/conv1_1_relu -> res5c_relu/conv1_1 (in-place)
I0514 15:25:23.415262 12600 net.cpp:150] Setting up res5c_relu/conv1_1_relu
I0514 15:25:23.415267 12600 net.cpp:157] Top shape: 1 256 19 19 (92416)
I0514 15:25:23.415271 12600 net.cpp:165] Memory required for data: 739637504
I0514 15:25:23.415271 12600 layer_factory.hpp:77] Creating layer res5c_relu/conv1_2
I0514 15:25:23.415277 12600 net.cpp:100] Creating Layer res5c_relu/conv1_2
I0514 15:25:23.415280 12600 net.cpp:434] res5c_relu/conv1_2 <- res5c_relu/conv1_1
I0514 15:25:23.415283 12600 net.cpp:408] res5c_relu/conv1_2 -> res5c_relu/conv1_2
I0514 15:25:23.424371 12600 net.cpp:150] Setting up res5c_relu/conv1_2
I0514 15:25:23.424387 12600 net.cpp:157] Top shape: 1 512 10 10 (51200)
I0514 15:25:23.424389 12600 net.cpp:165] Memory required for data: 739842304
I0514 15:25:23.424394 12600 layer_factory.hpp:77] Creating layer res5c_relu/conv1_2_bn
I0514 15:25:23.424399 12600 net.cpp:100] Creating Layer res5c_relu/conv1_2_bn
I0514 15:25:23.424403 12600 net.cpp:434] res5c_relu/conv1_2_bn <- res5c_relu/conv1_2
I0514 15:25:23.424408 12600 net.cpp:395] res5c_relu/conv1_2_bn -> res5c_relu/conv1_2 (in-place)
I0514 15:25:23.424618 12600 net.cpp:150] Setting up res5c_relu/conv1_2_bn
I0514 15:25:23.424623 12600 net.cpp:157] Top shape: 1 512 10 10 (51200)
I0514 15:25:23.424625 12600 net.cpp:165] Memory required for data: 740047104
I0514 15:25:23.424629 12600 layer_factory.hpp:77] Creating layer res5c_relu/conv1_2_scale
I0514 15:25:23.424634 12600 net.cpp:100] Creating Layer res5c_relu/conv1_2_scale
I0514 15:25:23.424636 12600 net.cpp:434] res5c_relu/conv1_2_scale <- res5c_relu/conv1_2
I0514 15:25:23.424641 12600 net.cpp:395] res5c_relu/conv1_2_scale -> res5c_relu/conv1_2 (in-place)
I0514 15:25:23.424674 12600 layer_factory.hpp:77] Creating layer res5c_relu/conv1_2_scale
I0514 15:25:23.424784 12600 net.cpp:150] Setting up res5c_relu/conv1_2_scale
I0514 15:25:23.424789 12600 net.cpp:157] Top shape: 1 512 10 10 (51200)
I0514 15:25:23.424792 12600 net.cpp:165] Memory required for data: 740251904
I0514 15:25:23.424794 12600 layer_factory.hpp:77] Creating layer res5c_relu/conv1_2_relu
I0514 15:25:23.424798 12600 net.cpp:100] Creating Layer res5c_relu/conv1_2_relu
I0514 15:25:23.424800 12600 net.cpp:434] res5c_relu/conv1_2_relu <- res5c_relu/conv1_2
I0514 15:25:23.424804 12600 net.cpp:395] res5c_relu/conv1_2_relu -> res5c_relu/conv1_2 (in-place)
I0514 15:25:23.424928 12600 net.cpp:150] Setting up res5c_relu/conv1_2_relu
I0514 15:25:23.424933 12600 net.cpp:157] Top shape: 1 512 10 10 (51200)
I0514 15:25:23.424943 12600 net.cpp:165] Memory required for data: 740456704
I0514 15:25:23.424947 12600 layer_factory.hpp:77] Creating layer res5c_relu/conv1_2_res5c_relu/conv1_2_relu_0_split
I0514 15:25:23.424952 12600 net.cpp:100] Creating Layer res5c_relu/conv1_2_res5c_relu/conv1_2_relu_0_split
I0514 15:25:23.424953 12600 net.cpp:434] res5c_relu/conv1_2_res5c_relu/conv1_2_relu_0_split <- res5c_relu/conv1_2
I0514 15:25:23.424957 12600 net.cpp:408] res5c_relu/conv1_2_res5c_relu/conv1_2_relu_0_split -> res5c_relu/conv1_2_res5c_relu/conv1_2_relu_0_split_0
I0514 15:25:23.424963 12600 net.cpp:408] res5c_relu/conv1_2_res5c_relu/conv1_2_relu_0_split -> res5c_relu/conv1_2_res5c_relu/conv1_2_relu_0_split_1
I0514 15:25:23.424968 12600 net.cpp:408] res5c_relu/conv1_2_res5c_relu/conv1_2_relu_0_split -> res5c_relu/conv1_2_res5c_relu/conv1_2_relu_0_split_2
I0514 15:25:23.424971 12600 net.cpp:408] res5c_relu/conv1_2_res5c_relu/conv1_2_relu_0_split -> res5c_relu/conv1_2_res5c_relu/conv1_2_relu_0_split_3
I0514 15:25:23.425034 12600 net.cpp:150] Setting up res5c_relu/conv1_2_res5c_relu/conv1_2_relu_0_split
I0514 15:25:23.425037 12600 net.cpp:157] Top shape: 1 512 10 10 (51200)
I0514 15:25:23.425040 12600 net.cpp:157] Top shape: 1 512 10 10 (51200)
I0514 15:25:23.425043 12600 net.cpp:157] Top shape: 1 512 10 10 (51200)
I0514 15:25:23.425046 12600 net.cpp:157] Top shape: 1 512 10 10 (51200)
I0514 15:25:23.425048 12600 net.cpp:165] Memory required for data: 741275904
I0514 15:25:23.425050 12600 layer_factory.hpp:77] Creating layer res5c_relu/conv2_1
I0514 15:25:23.425055 12600 net.cpp:100] Creating Layer res5c_relu/conv2_1
I0514 15:25:23.425058 12600 net.cpp:434] res5c_relu/conv2_1 <- res5c_relu/conv1_2_res5c_relu/conv1_2_relu_0_split_0
I0514 15:25:23.425062 12600 net.cpp:408] res5c_relu/conv2_1 -> res5c_relu/conv2_1
I0514 15:25:23.426844 12600 net.cpp:150] Setting up res5c_relu/conv2_1
I0514 15:25:23.426852 12600 net.cpp:157] Top shape: 1 256 10 10 (25600)
I0514 15:25:23.426856 12600 net.cpp:165] Memory required for data: 741378304
I0514 15:25:23.426858 12600 layer_factory.hpp:77] Creating layer res5c_relu/conv2_1_bn
I0514 15:25:23.426862 12600 net.cpp:100] Creating Layer res5c_relu/conv2_1_bn
I0514 15:25:23.426865 12600 net.cpp:434] res5c_relu/conv2_1_bn <- res5c_relu/conv2_1
I0514 15:25:23.426869 12600 net.cpp:395] res5c_relu/conv2_1_bn -> res5c_relu/conv2_1 (in-place)
I0514 15:25:23.427060 12600 net.cpp:150] Setting up res5c_relu/conv2_1_bn
I0514 15:25:23.427064 12600 net.cpp:157] Top shape: 1 256 10 10 (25600)
I0514 15:25:23.427067 12600 net.cpp:165] Memory required for data: 741480704
I0514 15:25:23.427070 12600 layer_factory.hpp:77] Creating layer res5c_relu/conv2_1_scale
I0514 15:25:23.427075 12600 net.cpp:100] Creating Layer res5c_relu/conv2_1_scale
I0514 15:25:23.427078 12600 net.cpp:434] res5c_relu/conv2_1_scale <- res5c_relu/conv2_1
I0514 15:25:23.427080 12600 net.cpp:395] res5c_relu/conv2_1_scale -> res5c_relu/conv2_1 (in-place)
I0514 15:25:23.427115 12600 layer_factory.hpp:77] Creating layer res5c_relu/conv2_1_scale
I0514 15:25:23.427224 12600 net.cpp:150] Setting up res5c_relu/conv2_1_scale
I0514 15:25:23.427228 12600 net.cpp:157] Top shape: 1 256 10 10 (25600)
I0514 15:25:23.427230 12600 net.cpp:165] Memory required for data: 741583104
I0514 15:25:23.427233 12600 layer_factory.hpp:77] Creating layer res5c_relu/conv2_1_relu
I0514 15:25:23.427237 12600 net.cpp:100] Creating Layer res5c_relu/conv2_1_relu
I0514 15:25:23.427239 12600 net.cpp:434] res5c_relu/conv2_1_relu <- res5c_relu/conv2_1
I0514 15:25:23.427243 12600 net.cpp:395] res5c_relu/conv2_1_relu -> res5c_relu/conv2_1 (in-place)
I0514 15:25:23.427359 12600 net.cpp:150] Setting up res5c_relu/conv2_1_relu
I0514 15:25:23.427366 12600 net.cpp:157] Top shape: 1 256 10 10 (25600)
I0514 15:25:23.427367 12600 net.cpp:165] Memory required for data: 741685504
I0514 15:25:23.427369 12600 layer_factory.hpp:77] Creating layer res5c_relu/conv2_2
I0514 15:25:23.427374 12600 net.cpp:100] Creating Layer res5c_relu/conv2_2
I0514 15:25:23.427383 12600 net.cpp:434] res5c_relu/conv2_2 <- res5c_relu/conv2_1
I0514 15:25:23.427388 12600 net.cpp:408] res5c_relu/conv2_2 -> res5c_relu/conv2_2
I0514 15:25:23.436480 12600 net.cpp:150] Setting up res5c_relu/conv2_2
I0514 15:25:23.436492 12600 net.cpp:157] Top shape: 1 512 5 5 (12800)
I0514 15:25:23.436496 12600 net.cpp:165] Memory required for data: 741736704
I0514 15:25:23.436499 12600 layer_factory.hpp:77] Creating layer res5c_relu/conv2_2_bn
I0514 15:25:23.436506 12600 net.cpp:100] Creating Layer res5c_relu/conv2_2_bn
I0514 15:25:23.436508 12600 net.cpp:434] res5c_relu/conv2_2_bn <- res5c_relu/conv2_2
I0514 15:25:23.436512 12600 net.cpp:395] res5c_relu/conv2_2_bn -> res5c_relu/conv2_2 (in-place)
I0514 15:25:23.436712 12600 net.cpp:150] Setting up res5c_relu/conv2_2_bn
I0514 15:25:23.436718 12600 net.cpp:157] Top shape: 1 512 5 5 (12800)
I0514 15:25:23.436720 12600 net.cpp:165] Memory required for data: 741787904
I0514 15:25:23.436725 12600 layer_factory.hpp:77] Creating layer res5c_relu/conv2_2_scale
I0514 15:25:23.436729 12600 net.cpp:100] Creating Layer res5c_relu/conv2_2_scale
I0514 15:25:23.436733 12600 net.cpp:434] res5c_relu/conv2_2_scale <- res5c_relu/conv2_2
I0514 15:25:23.436734 12600 net.cpp:395] res5c_relu/conv2_2_scale -> res5c_relu/conv2_2 (in-place)
I0514 15:25:23.436769 12600 layer_factory.hpp:77] Creating layer res5c_relu/conv2_2_scale
I0514 15:25:23.436882 12600 net.cpp:150] Setting up res5c_relu/conv2_2_scale
I0514 15:25:23.436887 12600 net.cpp:157] Top shape: 1 512 5 5 (12800)
I0514 15:25:23.436888 12600 net.cpp:165] Memory required for data: 741839104
I0514 15:25:23.436892 12600 layer_factory.hpp:77] Creating layer res5c_relu/conv2_2_relu
I0514 15:25:23.436897 12600 net.cpp:100] Creating Layer res5c_relu/conv2_2_relu
I0514 15:25:23.436898 12600 net.cpp:434] res5c_relu/conv2_2_relu <- res5c_relu/conv2_2
I0514 15:25:23.436902 12600 net.cpp:395] res5c_relu/conv2_2_relu -> res5c_relu/conv2_2 (in-place)
I0514 15:25:23.437022 12600 net.cpp:150] Setting up res5c_relu/conv2_2_relu
I0514 15:25:23.437027 12600 net.cpp:157] Top shape: 1 512 5 5 (12800)
I0514 15:25:23.437029 12600 net.cpp:165] Memory required for data: 741890304
I0514 15:25:23.437031 12600 layer_factory.hpp:77] Creating layer res5c_relu/conv2_2_res5c_relu/conv2_2_relu_0_split
I0514 15:25:23.437036 12600 net.cpp:100] Creating Layer res5c_relu/conv2_2_res5c_relu/conv2_2_relu_0_split
I0514 15:25:23.437038 12600 net.cpp:434] res5c_relu/conv2_2_res5c_relu/conv2_2_relu_0_split <- res5c_relu/conv2_2
I0514 15:25:23.437042 12600 net.cpp:408] res5c_relu/conv2_2_res5c_relu/conv2_2_relu_0_split -> res5c_relu/conv2_2_res5c_relu/conv2_2_relu_0_split_0
I0514 15:25:23.437047 12600 net.cpp:408] res5c_relu/conv2_2_res5c_relu/conv2_2_relu_0_split -> res5c_relu/conv2_2_res5c_relu/conv2_2_relu_0_split_1
I0514 15:25:23.437052 12600 net.cpp:408] res5c_relu/conv2_2_res5c_relu/conv2_2_relu_0_split -> res5c_relu/conv2_2_res5c_relu/conv2_2_relu_0_split_2
I0514 15:25:23.437057 12600 net.cpp:408] res5c_relu/conv2_2_res5c_relu/conv2_2_relu_0_split -> res5c_relu/conv2_2_res5c_relu/conv2_2_relu_0_split_3
I0514 15:25:23.437119 12600 net.cpp:150] Setting up res5c_relu/conv2_2_res5c_relu/conv2_2_relu_0_split
I0514 15:25:23.437124 12600 net.cpp:157] Top shape: 1 512 5 5 (12800)
I0514 15:25:23.437126 12600 net.cpp:157] Top shape: 1 512 5 5 (12800)
I0514 15:25:23.437129 12600 net.cpp:157] Top shape: 1 512 5 5 (12800)
I0514 15:25:23.437130 12600 net.cpp:157] Top shape: 1 512 5 5 (12800)
I0514 15:25:23.437131 12600 net.cpp:165] Memory required for data: 742095104
I0514 15:25:23.437134 12600 layer_factory.hpp:77] Creating layer res5c_relu/conv3_1
I0514 15:25:23.437139 12600 net.cpp:100] Creating Layer res5c_relu/conv3_1
I0514 15:25:23.437141 12600 net.cpp:434] res5c_relu/conv3_1 <- res5c_relu/conv2_2_res5c_relu/conv2_2_relu_0_split_0
I0514 15:25:23.437145 12600 net.cpp:408] res5c_relu/conv3_1 -> res5c_relu/conv3_1
I0514 15:25:23.438935 12600 net.cpp:150] Setting up res5c_relu/conv3_1
I0514 15:25:23.438943 12600 net.cpp:157] Top shape: 1 256 5 5 (6400)
I0514 15:25:23.438946 12600 net.cpp:165] Memory required for data: 742120704
I0514 15:25:23.438958 12600 layer_factory.hpp:77] Creating layer res5c_relu/conv3_1_bn
I0514 15:25:23.438963 12600 net.cpp:100] Creating Layer res5c_relu/conv3_1_bn
I0514 15:25:23.438966 12600 net.cpp:434] res5c_relu/conv3_1_bn <- res5c_relu/conv3_1
I0514 15:25:23.438971 12600 net.cpp:395] res5c_relu/conv3_1_bn -> res5c_relu/conv3_1 (in-place)
I0514 15:25:23.439168 12600 net.cpp:150] Setting up res5c_relu/conv3_1_bn
I0514 15:25:23.439173 12600 net.cpp:157] Top shape: 1 256 5 5 (6400)
I0514 15:25:23.439175 12600 net.cpp:165] Memory required for data: 742146304
I0514 15:25:23.439179 12600 layer_factory.hpp:77] Creating layer res5c_relu/conv3_1_scale
I0514 15:25:23.439183 12600 net.cpp:100] Creating Layer res5c_relu/conv3_1_scale
I0514 15:25:23.439187 12600 net.cpp:434] res5c_relu/conv3_1_scale <- res5c_relu/conv3_1
I0514 15:25:23.439189 12600 net.cpp:395] res5c_relu/conv3_1_scale -> res5c_relu/conv3_1 (in-place)
I0514 15:25:23.439224 12600 layer_factory.hpp:77] Creating layer res5c_relu/conv3_1_scale
I0514 15:25:23.439330 12600 net.cpp:150] Setting up res5c_relu/conv3_1_scale
I0514 15:25:23.439335 12600 net.cpp:157] Top shape: 1 256 5 5 (6400)
I0514 15:25:23.439337 12600 net.cpp:165] Memory required for data: 742171904
I0514 15:25:23.439340 12600 layer_factory.hpp:77] Creating layer res5c_relu/conv3_1_relu
I0514 15:25:23.439343 12600 net.cpp:100] Creating Layer res5c_relu/conv3_1_relu
I0514 15:25:23.439347 12600 net.cpp:434] res5c_relu/conv3_1_relu <- res5c_relu/conv3_1
I0514 15:25:23.439349 12600 net.cpp:395] res5c_relu/conv3_1_relu -> res5c_relu/conv3_1 (in-place)
I0514 15:25:23.439878 12600 net.cpp:150] Setting up res5c_relu/conv3_1_relu
I0514 15:25:23.439885 12600 net.cpp:157] Top shape: 1 256 5 5 (6400)
I0514 15:25:23.439888 12600 net.cpp:165] Memory required for data: 742197504
I0514 15:25:23.439890 12600 layer_factory.hpp:77] Creating layer res5c_relu/conv3_2
I0514 15:25:23.439895 12600 net.cpp:100] Creating Layer res5c_relu/conv3_2
I0514 15:25:23.439898 12600 net.cpp:434] res5c_relu/conv3_2 <- res5c_relu/conv3_1
I0514 15:25:23.439903 12600 net.cpp:408] res5c_relu/conv3_2 -> res5c_relu/conv3_2
I0514 15:25:23.448539 12600 net.cpp:150] Setting up res5c_relu/conv3_2
I0514 15:25:23.448549 12600 net.cpp:157] Top shape: 1 512 3 3 (4608)
I0514 15:25:23.448551 12600 net.cpp:165] Memory required for data: 742215936
I0514 15:25:23.448555 12600 layer_factory.hpp:77] Creating layer res5c_relu/conv3_2_bn
I0514 15:25:23.448561 12600 net.cpp:100] Creating Layer res5c_relu/conv3_2_bn
I0514 15:25:23.448565 12600 net.cpp:434] res5c_relu/conv3_2_bn <- res5c_relu/conv3_2
I0514 15:25:23.448570 12600 net.cpp:395] res5c_relu/conv3_2_bn -> res5c_relu/conv3_2 (in-place)
I0514 15:25:23.448773 12600 net.cpp:150] Setting up res5c_relu/conv3_2_bn
I0514 15:25:23.448777 12600 net.cpp:157] Top shape: 1 512 3 3 (4608)
I0514 15:25:23.448779 12600 net.cpp:165] Memory required for data: 742234368
I0514 15:25:23.448783 12600 layer_factory.hpp:77] Creating layer res5c_relu/conv3_2_scale
I0514 15:25:23.448789 12600 net.cpp:100] Creating Layer res5c_relu/conv3_2_scale
I0514 15:25:23.448792 12600 net.cpp:434] res5c_relu/conv3_2_scale <- res5c_relu/conv3_2
I0514 15:25:23.448794 12600 net.cpp:395] res5c_relu/conv3_2_scale -> res5c_relu/conv3_2 (in-place)
I0514 15:25:23.448828 12600 layer_factory.hpp:77] Creating layer res5c_relu/conv3_2_scale
I0514 15:25:23.448940 12600 net.cpp:150] Setting up res5c_relu/conv3_2_scale
I0514 15:25:23.448945 12600 net.cpp:157] Top shape: 1 512 3 3 (4608)
I0514 15:25:23.448946 12600 net.cpp:165] Memory required for data: 742252800
I0514 15:25:23.448949 12600 layer_factory.hpp:77] Creating layer res5c_relu/conv3_2_relu
I0514 15:25:23.448954 12600 net.cpp:100] Creating Layer res5c_relu/conv3_2_relu
I0514 15:25:23.448957 12600 net.cpp:434] res5c_relu/conv3_2_relu <- res5c_relu/conv3_2
I0514 15:25:23.448959 12600 net.cpp:395] res5c_relu/conv3_2_relu -> res5c_relu/conv3_2 (in-place)
I0514 15:25:23.449518 12600 net.cpp:150] Setting up res5c_relu/conv3_2_relu
I0514 15:25:23.449525 12600 net.cpp:157] Top shape: 1 512 3 3 (4608)
I0514 15:25:23.449537 12600 net.cpp:165] Memory required for data: 742271232
I0514 15:25:23.449539 12600 layer_factory.hpp:77] Creating layer res5c_relu/conv3_2_res5c_relu/conv3_2_relu_0_split
I0514 15:25:23.449543 12600 net.cpp:100] Creating Layer res5c_relu/conv3_2_res5c_relu/conv3_2_relu_0_split
I0514 15:25:23.449545 12600 net.cpp:434] res5c_relu/conv3_2_res5c_relu/conv3_2_relu_0_split <- res5c_relu/conv3_2
I0514 15:25:23.449553 12600 net.cpp:408] res5c_relu/conv3_2_res5c_relu/conv3_2_relu_0_split -> res5c_relu/conv3_2_res5c_relu/conv3_2_relu_0_split_0
I0514 15:25:23.449558 12600 net.cpp:408] res5c_relu/conv3_2_res5c_relu/conv3_2_relu_0_split -> res5c_relu/conv3_2_res5c_relu/conv3_2_relu_0_split_1
I0514 15:25:23.449563 12600 net.cpp:408] res5c_relu/conv3_2_res5c_relu/conv3_2_relu_0_split -> res5c_relu/conv3_2_res5c_relu/conv3_2_relu_0_split_2
I0514 15:25:23.449568 12600 net.cpp:408] res5c_relu/conv3_2_res5c_relu/conv3_2_relu_0_split -> res5c_relu/conv3_2_res5c_relu/conv3_2_relu_0_split_3
I0514 15:25:23.449632 12600 net.cpp:150] Setting up res5c_relu/conv3_2_res5c_relu/conv3_2_relu_0_split
I0514 15:25:23.449636 12600 net.cpp:157] Top shape: 1 512 3 3 (4608)
I0514 15:25:23.449638 12600 net.cpp:157] Top shape: 1 512 3 3 (4608)
I0514 15:25:23.449641 12600 net.cpp:157] Top shape: 1 512 3 3 (4608)
I0514 15:25:23.449643 12600 net.cpp:157] Top shape: 1 512 3 3 (4608)
I0514 15:25:23.449645 12600 net.cpp:165] Memory required for data: 742344960
I0514 15:25:23.449646 12600 layer_factory.hpp:77] Creating layer pool6
I0514 15:25:23.449651 12600 net.cpp:100] Creating Layer pool6
I0514 15:25:23.449653 12600 net.cpp:434] pool6 <- res5c_relu/conv3_2_res5c_relu/conv3_2_relu_0_split_0
I0514 15:25:23.449656 12600 net.cpp:408] pool6 -> pool6
I0514 15:25:23.461001 12600 net.cpp:150] Setting up pool6
I0514 15:25:23.461010 12600 net.cpp:157] Top shape: 1 512 1 1 (512)
I0514 15:25:23.461014 12600 net.cpp:165] Memory required for data: 742347008
I0514 15:25:23.461015 12600 layer_factory.hpp:77] Creating layer pool6_pool6_0_split
I0514 15:25:23.461019 12600 net.cpp:100] Creating Layer pool6_pool6_0_split
I0514 15:25:23.461022 12600 net.cpp:434] pool6_pool6_0_split <- pool6
I0514 15:25:23.461026 12600 net.cpp:408] pool6_pool6_0_split -> pool6_pool6_0_split_0
I0514 15:25:23.461031 12600 net.cpp:408] pool6_pool6_0_split -> pool6_pool6_0_split_1
I0514 15:25:23.461035 12600 net.cpp:408] pool6_pool6_0_split -> pool6_pool6_0_split_2
I0514 15:25:23.461082 12600 net.cpp:150] Setting up pool6_pool6_0_split
I0514 15:25:23.461086 12600 net.cpp:157] Top shape: 1 512 1 1 (512)
I0514 15:25:23.461088 12600 net.cpp:157] Top shape: 1 512 1 1 (512)
I0514 15:25:23.461091 12600 net.cpp:157] Top shape: 1 512 1 1 (512)
I0514 15:25:23.461092 12600 net.cpp:165] Memory required for data: 742353152
I0514 15:25:23.461096 12600 layer_factory.hpp:77] Creating layer res3b3_relu_mbox_loc
I0514 15:25:23.461102 12600 net.cpp:100] Creating Layer res3b3_relu_mbox_loc
I0514 15:25:23.461104 12600 net.cpp:434] res3b3_relu_mbox_loc <- res3b3_res3b3_relu_0_split_2
I0514 15:25:23.461108 12600 net.cpp:408] res3b3_relu_mbox_loc -> res3b3_relu_mbox_loc
I0514 15:25:23.462800 12600 net.cpp:150] Setting up res3b3_relu_mbox_loc
I0514 15:25:23.462808 12600 net.cpp:157] Top shape: 1 12 38 38 (17328)
I0514 15:25:23.462811 12600 net.cpp:165] Memory required for data: 742422464
I0514 15:25:23.462815 12600 layer_factory.hpp:77] Creating layer res3b3_relu_mbox_loc_perm
I0514 15:25:23.462864 12600 net.cpp:100] Creating Layer res3b3_relu_mbox_loc_perm
I0514 15:25:23.462867 12600 net.cpp:434] res3b3_relu_mbox_loc_perm <- res3b3_relu_mbox_loc
I0514 15:25:23.462872 12600 net.cpp:408] res3b3_relu_mbox_loc_perm -> res3b3_relu_mbox_loc_perm
I0514 15:25:23.462975 12600 net.cpp:150] Setting up res3b3_relu_mbox_loc_perm
I0514 15:25:23.462980 12600 net.cpp:157] Top shape: 1 38 38 12 (17328)
I0514 15:25:23.462981 12600 net.cpp:165] Memory required for data: 742491776
I0514 15:25:23.462983 12600 layer_factory.hpp:77] Creating layer res3b3_relu_mbox_loc_flat
I0514 15:25:23.462994 12600 net.cpp:100] Creating Layer res3b3_relu_mbox_loc_flat
I0514 15:25:23.462997 12600 net.cpp:434] res3b3_relu_mbox_loc_flat <- res3b3_relu_mbox_loc_perm
I0514 15:25:23.463001 12600 net.cpp:408] res3b3_relu_mbox_loc_flat -> res3b3_relu_mbox_loc_flat
I0514 15:25:23.463023 12600 net.cpp:150] Setting up res3b3_relu_mbox_loc_flat
I0514 15:25:23.463027 12600 net.cpp:157] Top shape: 1 17328 (17328)
I0514 15:25:23.463029 12600 net.cpp:165] Memory required for data: 742561088
I0514 15:25:23.463030 12600 layer_factory.hpp:77] Creating layer res3b3_relu_mbox_conf
I0514 15:25:23.463035 12600 net.cpp:100] Creating Layer res3b3_relu_mbox_conf
I0514 15:25:23.463037 12600 net.cpp:434] res3b3_relu_mbox_conf <- res3b3_res3b3_relu_0_split_3
I0514 15:25:23.463042 12600 net.cpp:408] res3b3_relu_mbox_conf -> res3b3_relu_mbox_conf
I0514 15:25:23.466058 12600 net.cpp:150] Setting up res3b3_relu_mbox_conf
I0514 15:25:23.466065 12600 net.cpp:157] Top shape: 1 63 38 38 (90972)
I0514 15:25:23.466068 12600 net.cpp:165] Memory required for data: 742924976
I0514 15:25:23.466071 12600 layer_factory.hpp:77] Creating layer res3b3_relu_mbox_conf_perm
I0514 15:25:23.466078 12600 net.cpp:100] Creating Layer res3b3_relu_mbox_conf_perm
I0514 15:25:23.466080 12600 net.cpp:434] res3b3_relu_mbox_conf_perm <- res3b3_relu_mbox_conf
I0514 15:25:23.466084 12600 net.cpp:408] res3b3_relu_mbox_conf_perm -> res3b3_relu_mbox_conf_perm
I0514 15:25:23.466189 12600 net.cpp:150] Setting up res3b3_relu_mbox_conf_perm
I0514 15:25:23.466193 12600 net.cpp:157] Top shape: 1 38 38 63 (90972)
I0514 15:25:23.466195 12600 net.cpp:165] Memory required for data: 743288864
I0514 15:25:23.466197 12600 layer_factory.hpp:77] Creating layer res3b3_relu_mbox_conf_flat
I0514 15:25:23.466200 12600 net.cpp:100] Creating Layer res3b3_relu_mbox_conf_flat
I0514 15:25:23.466203 12600 net.cpp:434] res3b3_relu_mbox_conf_flat <- res3b3_relu_mbox_conf_perm
I0514 15:25:23.466207 12600 net.cpp:408] res3b3_relu_mbox_conf_flat -> res3b3_relu_mbox_conf_flat
I0514 15:25:23.466228 12600 net.cpp:150] Setting up res3b3_relu_mbox_conf_flat
I0514 15:25:23.466233 12600 net.cpp:157] Top shape: 1 90972 (90972)
I0514 15:25:23.466233 12600 net.cpp:165] Memory required for data: 743652752
I0514 15:25:23.466235 12600 layer_factory.hpp:77] Creating layer res3b3_relu_mbox_priorbox
I0514 15:25:23.466239 12600 net.cpp:100] Creating Layer res3b3_relu_mbox_priorbox
I0514 15:25:23.466243 12600 net.cpp:434] res3b3_relu_mbox_priorbox <- res3b3_res3b3_relu_0_split_4
I0514 15:25:23.466245 12600 net.cpp:434] res3b3_relu_mbox_priorbox <- data_input_0_split_1
I0514 15:25:23.466249 12600 net.cpp:408] res3b3_relu_mbox_priorbox -> res3b3_relu_mbox_priorbox
I0514 15:25:23.466274 12600 net.cpp:150] Setting up res3b3_relu_mbox_priorbox
I0514 15:25:23.466279 12600 net.cpp:157] Top shape: 1 2 17328 (34656)
I0514 15:25:23.466280 12600 net.cpp:165] Memory required for data: 743791376
I0514 15:25:23.466281 12600 layer_factory.hpp:77] Creating layer res5c_relu_mbox_loc
I0514 15:25:23.466287 12600 net.cpp:100] Creating Layer res5c_relu_mbox_loc
I0514 15:25:23.466290 12600 net.cpp:434] res5c_relu_mbox_loc <- res5c_res5c_relu_0_split_1
I0514 15:25:23.466295 12600 net.cpp:408] res5c_relu_mbox_loc -> res5c_relu_mbox_loc
I0514 15:25:23.470242 12600 net.cpp:150] Setting up res5c_relu_mbox_loc
I0514 15:25:23.470252 12600 net.cpp:157] Top shape: 1 24 19 19 (8664)
I0514 15:25:23.470253 12600 net.cpp:165] Memory required for data: 743826032
I0514 15:25:23.470257 12600 layer_factory.hpp:77] Creating layer res5c_relu_mbox_loc_perm
I0514 15:25:23.470263 12600 net.cpp:100] Creating Layer res5c_relu_mbox_loc_perm
I0514 15:25:23.470268 12600 net.cpp:434] res5c_relu_mbox_loc_perm <- res5c_relu_mbox_loc
I0514 15:25:23.470271 12600 net.cpp:408] res5c_relu_mbox_loc_perm -> res5c_relu_mbox_loc_perm
I0514 15:25:23.470340 12600 net.cpp:150] Setting up res5c_relu_mbox_loc_perm
I0514 15:25:23.470343 12600 net.cpp:157] Top shape: 1 19 19 24 (8664)
I0514 15:25:23.470345 12600 net.cpp:165] Memory required for data: 743860688
I0514 15:25:23.470347 12600 layer_factory.hpp:77] Creating layer res5c_relu_mbox_loc_flat
I0514 15:25:23.470360 12600 net.cpp:100] Creating Layer res5c_relu_mbox_loc_flat
I0514 15:25:23.470362 12600 net.cpp:434] res5c_relu_mbox_loc_flat <- res5c_relu_mbox_loc_perm
I0514 15:25:23.470366 12600 net.cpp:408] res5c_relu_mbox_loc_flat -> res5c_relu_mbox_loc_flat
I0514 15:25:23.470382 12600 net.cpp:150] Setting up res5c_relu_mbox_loc_flat
I0514 15:25:23.470386 12600 net.cpp:157] Top shape: 1 8664 (8664)
I0514 15:25:23.470387 12600 net.cpp:165] Memory required for data: 743895344
I0514 15:25:23.470388 12600 layer_factory.hpp:77] Creating layer res5c_relu_mbox_conf
I0514 15:25:23.470394 12600 net.cpp:100] Creating Layer res5c_relu_mbox_conf
I0514 15:25:23.470397 12600 net.cpp:434] res5c_relu_mbox_conf <- res5c_res5c_relu_0_split_2
I0514 15:25:23.470402 12600 net.cpp:408] res5c_relu_mbox_conf -> res5c_relu_mbox_conf
I0514 15:25:23.481058 12600 net.cpp:150] Setting up res5c_relu_mbox_conf
I0514 15:25:23.481076 12600 net.cpp:157] Top shape: 1 126 19 19 (45486)
I0514 15:25:23.481078 12600 net.cpp:165] Memory required for data: 744077288
I0514 15:25:23.481086 12600 layer_factory.hpp:77] Creating layer res5c_relu_mbox_conf_perm
I0514 15:25:23.481093 12600 net.cpp:100] Creating Layer res5c_relu_mbox_conf_perm
I0514 15:25:23.481098 12600 net.cpp:434] res5c_relu_mbox_conf_perm <- res5c_relu_mbox_conf
I0514 15:25:23.481103 12600 net.cpp:408] res5c_relu_mbox_conf_perm -> res5c_relu_mbox_conf_perm
I0514 15:25:23.481168 12600 net.cpp:150] Setting up res5c_relu_mbox_conf_perm
I0514 15:25:23.481171 12600 net.cpp:157] Top shape: 1 19 19 126 (45486)
I0514 15:25:23.481174 12600 net.cpp:165] Memory required for data: 744259232
I0514 15:25:23.481175 12600 layer_factory.hpp:77] Creating layer res5c_relu_mbox_conf_flat
I0514 15:25:23.481180 12600 net.cpp:100] Creating Layer res5c_relu_mbox_conf_flat
I0514 15:25:23.481182 12600 net.cpp:434] res5c_relu_mbox_conf_flat <- res5c_relu_mbox_conf_perm
I0514 15:25:23.481186 12600 net.cpp:408] res5c_relu_mbox_conf_flat -> res5c_relu_mbox_conf_flat
I0514 15:25:23.481201 12600 net.cpp:150] Setting up res5c_relu_mbox_conf_flat
I0514 15:25:23.481204 12600 net.cpp:157] Top shape: 1 45486 (45486)
I0514 15:25:23.481206 12600 net.cpp:165] Memory required for data: 744441176
I0514 15:25:23.481209 12600 layer_factory.hpp:77] Creating layer res5c_relu_mbox_priorbox
I0514 15:25:23.481212 12600 net.cpp:100] Creating Layer res5c_relu_mbox_priorbox
I0514 15:25:23.481215 12600 net.cpp:434] res5c_relu_mbox_priorbox <- res5c_res5c_relu_0_split_3
I0514 15:25:23.481218 12600 net.cpp:434] res5c_relu_mbox_priorbox <- data_input_0_split_2
I0514 15:25:23.481222 12600 net.cpp:408] res5c_relu_mbox_priorbox -> res5c_relu_mbox_priorbox
I0514 15:25:23.481240 12600 net.cpp:150] Setting up res5c_relu_mbox_priorbox
I0514 15:25:23.481242 12600 net.cpp:157] Top shape: 1 2 8664 (17328)
I0514 15:25:23.481245 12600 net.cpp:165] Memory required for data: 744510488
I0514 15:25:23.481246 12600 layer_factory.hpp:77] Creating layer res5c_relu/conv1_2_mbox_loc
I0514 15:25:23.481253 12600 net.cpp:100] Creating Layer res5c_relu/conv1_2_mbox_loc
I0514 15:25:23.481256 12600 net.cpp:434] res5c_relu/conv1_2_mbox_loc <- res5c_relu/conv1_2_res5c_relu/conv1_2_relu_0_split_1
I0514 15:25:23.481261 12600 net.cpp:408] res5c_relu/conv1_2_mbox_loc -> res5c_relu/conv1_2_mbox_loc
I0514 15:25:23.483357 12600 net.cpp:150] Setting up res5c_relu/conv1_2_mbox_loc
I0514 15:25:23.483366 12600 net.cpp:157] Top shape: 1 24 10 10 (2400)
I0514 15:25:23.483368 12600 net.cpp:165] Memory required for data: 744520088
I0514 15:25:23.483372 12600 layer_factory.hpp:77] Creating layer res5c_relu/conv1_2_mbox_loc_perm
I0514 15:25:23.483377 12600 net.cpp:100] Creating Layer res5c_relu/conv1_2_mbox_loc_perm
I0514 15:25:23.483381 12600 net.cpp:434] res5c_relu/conv1_2_mbox_loc_perm <- res5c_relu/conv1_2_mbox_loc
I0514 15:25:23.483384 12600 net.cpp:408] res5c_relu/conv1_2_mbox_loc_perm -> res5c_relu/conv1_2_mbox_loc_perm
I0514 15:25:23.483474 12600 net.cpp:150] Setting up res5c_relu/conv1_2_mbox_loc_perm
I0514 15:25:23.483479 12600 net.cpp:157] Top shape: 1 10 10 24 (2400)
I0514 15:25:23.483489 12600 net.cpp:165] Memory required for data: 744529688
I0514 15:25:23.483491 12600 layer_factory.hpp:77] Creating layer res5c_relu/conv1_2_mbox_loc_flat
I0514 15:25:23.483494 12600 net.cpp:100] Creating Layer res5c_relu/conv1_2_mbox_loc_flat
I0514 15:25:23.483497 12600 net.cpp:434] res5c_relu/conv1_2_mbox_loc_flat <- res5c_relu/conv1_2_mbox_loc_perm
I0514 15:25:23.483502 12600 net.cpp:408] res5c_relu/conv1_2_mbox_loc_flat -> res5c_relu/conv1_2_mbox_loc_flat
I0514 15:25:23.483516 12600 net.cpp:150] Setting up res5c_relu/conv1_2_mbox_loc_flat
I0514 15:25:23.483520 12600 net.cpp:157] Top shape: 1 2400 (2400)
I0514 15:25:23.483522 12600 net.cpp:165] Memory required for data: 744539288
I0514 15:25:23.483525 12600 layer_factory.hpp:77] Creating layer res5c_relu/conv1_2_mbox_conf
I0514 15:25:23.483530 12600 net.cpp:100] Creating Layer res5c_relu/conv1_2_mbox_conf
I0514 15:25:23.483532 12600 net.cpp:434] res5c_relu/conv1_2_mbox_conf <- res5c_relu/conv1_2_res5c_relu/conv1_2_relu_0_split_2
I0514 15:25:23.483536 12600 net.cpp:408] res5c_relu/conv1_2_mbox_conf -> res5c_relu/conv1_2_mbox_conf
I0514 15:25:23.487005 12600 net.cpp:150] Setting up res5c_relu/conv1_2_mbox_conf
I0514 15:25:23.487013 12600 net.cpp:157] Top shape: 1 126 10 10 (12600)
I0514 15:25:23.487015 12600 net.cpp:165] Memory required for data: 744589688
I0514 15:25:23.487020 12600 layer_factory.hpp:77] Creating layer res5c_relu/conv1_2_mbox_conf_perm
I0514 15:25:23.487025 12600 net.cpp:100] Creating Layer res5c_relu/conv1_2_mbox_conf_perm
I0514 15:25:23.487028 12600 net.cpp:434] res5c_relu/conv1_2_mbox_conf_perm <- res5c_relu/conv1_2_mbox_conf
I0514 15:25:23.487033 12600 net.cpp:408] res5c_relu/conv1_2_mbox_conf_perm -> res5c_relu/conv1_2_mbox_conf_perm
I0514 15:25:23.487097 12600 net.cpp:150] Setting up res5c_relu/conv1_2_mbox_conf_perm
I0514 15:25:23.487102 12600 net.cpp:157] Top shape: 1 10 10 126 (12600)
I0514 15:25:23.487103 12600 net.cpp:165] Memory required for data: 744640088
I0514 15:25:23.487104 12600 layer_factory.hpp:77] Creating layer res5c_relu/conv1_2_mbox_conf_flat
I0514 15:25:23.487108 12600 net.cpp:100] Creating Layer res5c_relu/conv1_2_mbox_conf_flat
I0514 15:25:23.487112 12600 net.cpp:434] res5c_relu/conv1_2_mbox_conf_flat <- res5c_relu/conv1_2_mbox_conf_perm
I0514 15:25:23.487114 12600 net.cpp:408] res5c_relu/conv1_2_mbox_conf_flat -> res5c_relu/conv1_2_mbox_conf_flat
I0514 15:25:23.487129 12600 net.cpp:150] Setting up res5c_relu/conv1_2_mbox_conf_flat
I0514 15:25:23.487133 12600 net.cpp:157] Top shape: 1 12600 (12600)
I0514 15:25:23.487134 12600 net.cpp:165] Memory required for data: 744690488
I0514 15:25:23.487136 12600 layer_factory.hpp:77] Creating layer res5c_relu/conv1_2_mbox_priorbox
I0514 15:25:23.487140 12600 net.cpp:100] Creating Layer res5c_relu/conv1_2_mbox_priorbox
I0514 15:25:23.487143 12600 net.cpp:434] res5c_relu/conv1_2_mbox_priorbox <- res5c_relu/conv1_2_res5c_relu/conv1_2_relu_0_split_3
I0514 15:25:23.487146 12600 net.cpp:434] res5c_relu/conv1_2_mbox_priorbox <- data_input_0_split_3
I0514 15:25:23.487150 12600 net.cpp:408] res5c_relu/conv1_2_mbox_priorbox -> res5c_relu/conv1_2_mbox_priorbox
I0514 15:25:23.487165 12600 net.cpp:150] Setting up res5c_relu/conv1_2_mbox_priorbox
I0514 15:25:23.487169 12600 net.cpp:157] Top shape: 1 2 2400 (4800)
I0514 15:25:23.487170 12600 net.cpp:165] Memory required for data: 744709688
I0514 15:25:23.487172 12600 layer_factory.hpp:77] Creating layer res5c_relu/conv2_2_mbox_loc
I0514 15:25:23.487179 12600 net.cpp:100] Creating Layer res5c_relu/conv2_2_mbox_loc
I0514 15:25:23.487181 12600 net.cpp:434] res5c_relu/conv2_2_mbox_loc <- res5c_relu/conv2_2_res5c_relu/conv2_2_relu_0_split_1
I0514 15:25:23.487185 12600 net.cpp:408] res5c_relu/conv2_2_mbox_loc -> res5c_relu/conv2_2_mbox_loc
I0514 15:25:23.488869 12600 net.cpp:150] Setting up res5c_relu/conv2_2_mbox_loc
I0514 15:25:23.488878 12600 net.cpp:157] Top shape: 1 24 5 5 (600)
I0514 15:25:23.488880 12600 net.cpp:165] Memory required for data: 744712088
I0514 15:25:23.488884 12600 layer_factory.hpp:77] Creating layer res5c_relu/conv2_2_mbox_loc_perm
I0514 15:25:23.488895 12600 net.cpp:100] Creating Layer res5c_relu/conv2_2_mbox_loc_perm
I0514 15:25:23.488899 12600 net.cpp:434] res5c_relu/conv2_2_mbox_loc_perm <- res5c_relu/conv2_2_mbox_loc
I0514 15:25:23.488904 12600 net.cpp:408] res5c_relu/conv2_2_mbox_loc_perm -> res5c_relu/conv2_2_mbox_loc_perm
I0514 15:25:23.488970 12600 net.cpp:150] Setting up res5c_relu/conv2_2_mbox_loc_perm
I0514 15:25:23.488972 12600 net.cpp:157] Top shape: 1 5 5 24 (600)
I0514 15:25:23.488975 12600 net.cpp:165] Memory required for data: 744714488
I0514 15:25:23.488977 12600 layer_factory.hpp:77] Creating layer res5c_relu/conv2_2_mbox_loc_flat
I0514 15:25:23.488981 12600 net.cpp:100] Creating Layer res5c_relu/conv2_2_mbox_loc_flat
I0514 15:25:23.488983 12600 net.cpp:434] res5c_relu/conv2_2_mbox_loc_flat <- res5c_relu/conv2_2_mbox_loc_perm
I0514 15:25:23.488987 12600 net.cpp:408] res5c_relu/conv2_2_mbox_loc_flat -> res5c_relu/conv2_2_mbox_loc_flat
I0514 15:25:23.489001 12600 net.cpp:150] Setting up res5c_relu/conv2_2_mbox_loc_flat
I0514 15:25:23.489004 12600 net.cpp:157] Top shape: 1 600 (600)
I0514 15:25:23.489006 12600 net.cpp:165] Memory required for data: 744716888
I0514 15:25:23.489007 12600 layer_factory.hpp:77] Creating layer res5c_relu/conv2_2_mbox_conf
I0514 15:25:23.489013 12600 net.cpp:100] Creating Layer res5c_relu/conv2_2_mbox_conf
I0514 15:25:23.489017 12600 net.cpp:434] res5c_relu/conv2_2_mbox_conf <- res5c_relu/conv2_2_res5c_relu/conv2_2_relu_0_split_2
I0514 15:25:23.489019 12600 net.cpp:408] res5c_relu/conv2_2_mbox_conf -> res5c_relu/conv2_2_mbox_conf
I0514 15:25:23.492923 12600 net.cpp:150] Setting up res5c_relu/conv2_2_mbox_conf
I0514 15:25:23.492933 12600 net.cpp:157] Top shape: 1 126 5 5 (3150)
I0514 15:25:23.492935 12600 net.cpp:165] Memory required for data: 744729488
I0514 15:25:23.492939 12600 layer_factory.hpp:77] Creating layer res5c_relu/conv2_2_mbox_conf_perm
I0514 15:25:23.492945 12600 net.cpp:100] Creating Layer res5c_relu/conv2_2_mbox_conf_perm
I0514 15:25:23.492949 12600 net.cpp:434] res5c_relu/conv2_2_mbox_conf_perm <- res5c_relu/conv2_2_mbox_conf
I0514 15:25:23.492952 12600 net.cpp:408] res5c_relu/conv2_2_mbox_conf_perm -> res5c_relu/conv2_2_mbox_conf_perm
I0514 15:25:23.493018 12600 net.cpp:150] Setting up res5c_relu/conv2_2_mbox_conf_perm
I0514 15:25:23.493022 12600 net.cpp:157] Top shape: 1 5 5 126 (3150)
I0514 15:25:23.493026 12600 net.cpp:165] Memory required for data: 744742088
I0514 15:25:23.493026 12600 layer_factory.hpp:77] Creating layer res5c_relu/conv2_2_mbox_conf_flat
I0514 15:25:23.493031 12600 net.cpp:100] Creating Layer res5c_relu/conv2_2_mbox_conf_flat
I0514 15:25:23.493033 12600 net.cpp:434] res5c_relu/conv2_2_mbox_conf_flat <- res5c_relu/conv2_2_mbox_conf_perm
I0514 15:25:23.493036 12600 net.cpp:408] res5c_relu/conv2_2_mbox_conf_flat -> res5c_relu/conv2_2_mbox_conf_flat
I0514 15:25:23.493052 12600 net.cpp:150] Setting up res5c_relu/conv2_2_mbox_conf_flat
I0514 15:25:23.493054 12600 net.cpp:157] Top shape: 1 3150 (3150)
I0514 15:25:23.493057 12600 net.cpp:165] Memory required for data: 744754688
I0514 15:25:23.493058 12600 layer_factory.hpp:77] Creating layer res5c_relu/conv2_2_mbox_priorbox
I0514 15:25:23.493062 12600 net.cpp:100] Creating Layer res5c_relu/conv2_2_mbox_priorbox
I0514 15:25:23.493064 12600 net.cpp:434] res5c_relu/conv2_2_mbox_priorbox <- res5c_relu/conv2_2_res5c_relu/conv2_2_relu_0_split_3
I0514 15:25:23.493067 12600 net.cpp:434] res5c_relu/conv2_2_mbox_priorbox <- data_input_0_split_4
I0514 15:25:23.493072 12600 net.cpp:408] res5c_relu/conv2_2_mbox_priorbox -> res5c_relu/conv2_2_mbox_priorbox
I0514 15:25:23.493088 12600 net.cpp:150] Setting up res5c_relu/conv2_2_mbox_priorbox
I0514 15:25:23.493091 12600 net.cpp:157] Top shape: 1 2 600 (1200)
I0514 15:25:23.493093 12600 net.cpp:165] Memory required for data: 744759488
I0514 15:25:23.493095 12600 layer_factory.hpp:77] Creating layer res5c_relu/conv3_2_mbox_loc
I0514 15:25:23.493100 12600 net.cpp:100] Creating Layer res5c_relu/conv3_2_mbox_loc
I0514 15:25:23.493110 12600 net.cpp:434] res5c_relu/conv3_2_mbox_loc <- res5c_relu/conv3_2_res5c_relu/conv3_2_relu_0_split_1
I0514 15:25:23.493115 12600 net.cpp:408] res5c_relu/conv3_2_mbox_loc -> res5c_relu/conv3_2_mbox_loc
I0514 15:25:23.495389 12600 net.cpp:150] Setting up res5c_relu/conv3_2_mbox_loc
I0514 15:25:23.495396 12600 net.cpp:157] Top shape: 1 24 3 3 (216)
I0514 15:25:23.495398 12600 net.cpp:165] Memory required for data: 744760352
I0514 15:25:23.495403 12600 layer_factory.hpp:77] Creating layer res5c_relu/conv3_2_mbox_loc_perm
I0514 15:25:23.495409 12600 net.cpp:100] Creating Layer res5c_relu/conv3_2_mbox_loc_perm
I0514 15:25:23.495411 12600 net.cpp:434] res5c_relu/conv3_2_mbox_loc_perm <- res5c_relu/conv3_2_mbox_loc
I0514 15:25:23.495416 12600 net.cpp:408] res5c_relu/conv3_2_mbox_loc_perm -> res5c_relu/conv3_2_mbox_loc_perm
I0514 15:25:23.495482 12600 net.cpp:150] Setting up res5c_relu/conv3_2_mbox_loc_perm
I0514 15:25:23.495486 12600 net.cpp:157] Top shape: 1 3 3 24 (216)
I0514 15:25:23.495487 12600 net.cpp:165] Memory required for data: 744761216
I0514 15:25:23.495489 12600 layer_factory.hpp:77] Creating layer res5c_relu/conv3_2_mbox_loc_flat
I0514 15:25:23.495493 12600 net.cpp:100] Creating Layer res5c_relu/conv3_2_mbox_loc_flat
I0514 15:25:23.495496 12600 net.cpp:434] res5c_relu/conv3_2_mbox_loc_flat <- res5c_relu/conv3_2_mbox_loc_perm
I0514 15:25:23.495499 12600 net.cpp:408] res5c_relu/conv3_2_mbox_loc_flat -> res5c_relu/conv3_2_mbox_loc_flat
I0514 15:25:23.495514 12600 net.cpp:150] Setting up res5c_relu/conv3_2_mbox_loc_flat
I0514 15:25:23.495517 12600 net.cpp:157] Top shape: 1 216 (216)
I0514 15:25:23.495519 12600 net.cpp:165] Memory required for data: 744762080
I0514 15:25:23.495522 12600 layer_factory.hpp:77] Creating layer res5c_relu/conv3_2_mbox_conf
I0514 15:25:23.495527 12600 net.cpp:100] Creating Layer res5c_relu/conv3_2_mbox_conf
I0514 15:25:23.495529 12600 net.cpp:434] res5c_relu/conv3_2_mbox_conf <- res5c_relu/conv3_2_res5c_relu/conv3_2_relu_0_split_2
I0514 15:25:23.495533 12600 net.cpp:408] res5c_relu/conv3_2_mbox_conf -> res5c_relu/conv3_2_mbox_conf
I0514 15:25:23.499423 12600 net.cpp:150] Setting up res5c_relu/conv3_2_mbox_conf
I0514 15:25:23.499430 12600 net.cpp:157] Top shape: 1 126 3 3 (1134)
I0514 15:25:23.499433 12600 net.cpp:165] Memory required for data: 744766616
I0514 15:25:23.499438 12600 layer_factory.hpp:77] Creating layer res5c_relu/conv3_2_mbox_conf_perm
I0514 15:25:23.499441 12600 net.cpp:100] Creating Layer res5c_relu/conv3_2_mbox_conf_perm
I0514 15:25:23.499444 12600 net.cpp:434] res5c_relu/conv3_2_mbox_conf_perm <- res5c_relu/conv3_2_mbox_conf
I0514 15:25:23.499449 12600 net.cpp:408] res5c_relu/conv3_2_mbox_conf_perm -> res5c_relu/conv3_2_mbox_conf_perm
I0514 15:25:23.499517 12600 net.cpp:150] Setting up res5c_relu/conv3_2_mbox_conf_perm
I0514 15:25:23.499521 12600 net.cpp:157] Top shape: 1 3 3 126 (1134)
I0514 15:25:23.499522 12600 net.cpp:165] Memory required for data: 744771152
I0514 15:25:23.499524 12600 layer_factory.hpp:77] Creating layer res5c_relu/conv3_2_mbox_conf_flat
I0514 15:25:23.499527 12600 net.cpp:100] Creating Layer res5c_relu/conv3_2_mbox_conf_flat
I0514 15:25:23.499531 12600 net.cpp:434] res5c_relu/conv3_2_mbox_conf_flat <- res5c_relu/conv3_2_mbox_conf_perm
I0514 15:25:23.499534 12600 net.cpp:408] res5c_relu/conv3_2_mbox_conf_flat -> res5c_relu/conv3_2_mbox_conf_flat
I0514 15:25:23.499549 12600 net.cpp:150] Setting up res5c_relu/conv3_2_mbox_conf_flat
I0514 15:25:23.499552 12600 net.cpp:157] Top shape: 1 1134 (1134)
I0514 15:25:23.499554 12600 net.cpp:165] Memory required for data: 744775688
I0514 15:25:23.499555 12600 layer_factory.hpp:77] Creating layer res5c_relu/conv3_2_mbox_priorbox
I0514 15:25:23.499559 12600 net.cpp:100] Creating Layer res5c_relu/conv3_2_mbox_priorbox
I0514 15:25:23.499562 12600 net.cpp:434] res5c_relu/conv3_2_mbox_priorbox <- res5c_relu/conv3_2_res5c_relu/conv3_2_relu_0_split_3
I0514 15:25:23.499565 12600 net.cpp:434] res5c_relu/conv3_2_mbox_priorbox <- data_input_0_split_5
I0514 15:25:23.499569 12600 net.cpp:408] res5c_relu/conv3_2_mbox_priorbox -> res5c_relu/conv3_2_mbox_priorbox
I0514 15:25:23.499593 12600 net.cpp:150] Setting up res5c_relu/conv3_2_mbox_priorbox
I0514 15:25:23.499598 12600 net.cpp:157] Top shape: 1 2 216 (432)
I0514 15:25:23.499599 12600 net.cpp:165] Memory required for data: 744777416
I0514 15:25:23.499601 12600 layer_factory.hpp:77] Creating layer pool6_mbox_loc
I0514 15:25:23.499606 12600 net.cpp:100] Creating Layer pool6_mbox_loc
I0514 15:25:23.499609 12600 net.cpp:434] pool6_mbox_loc <- pool6_pool6_0_split_0
I0514 15:25:23.499614 12600 net.cpp:408] pool6_mbox_loc -> pool6_mbox_loc
I0514 15:25:23.501333 12600 net.cpp:150] Setting up pool6_mbox_loc
I0514 15:25:23.501340 12600 net.cpp:157] Top shape: 1 24 1 1 (24)
I0514 15:25:23.501343 12600 net.cpp:165] Memory required for data: 744777512
I0514 15:25:23.501348 12600 layer_factory.hpp:77] Creating layer pool6_mbox_loc_perm
I0514 15:25:23.501351 12600 net.cpp:100] Creating Layer pool6_mbox_loc_perm
I0514 15:25:23.501354 12600 net.cpp:434] pool6_mbox_loc_perm <- pool6_mbox_loc
I0514 15:25:23.501358 12600 net.cpp:408] pool6_mbox_loc_perm -> pool6_mbox_loc_perm
I0514 15:25:23.501423 12600 net.cpp:150] Setting up pool6_mbox_loc_perm
I0514 15:25:23.501427 12600 net.cpp:157] Top shape: 1 1 1 24 (24)
I0514 15:25:23.501428 12600 net.cpp:165] Memory required for data: 744777608
I0514 15:25:23.501430 12600 layer_factory.hpp:77] Creating layer pool6_mbox_loc_flat
I0514 15:25:23.501433 12600 net.cpp:100] Creating Layer pool6_mbox_loc_flat
I0514 15:25:23.501436 12600 net.cpp:434] pool6_mbox_loc_flat <- pool6_mbox_loc_perm
I0514 15:25:23.501440 12600 net.cpp:408] pool6_mbox_loc_flat -> pool6_mbox_loc_flat
I0514 15:25:23.501454 12600 net.cpp:150] Setting up pool6_mbox_loc_flat
I0514 15:25:23.501457 12600 net.cpp:157] Top shape: 1 24 (24)
I0514 15:25:23.501459 12600 net.cpp:165] Memory required for data: 744777704
I0514 15:25:23.501461 12600 layer_factory.hpp:77] Creating layer pool6_mbox_conf
I0514 15:25:23.501466 12600 net.cpp:100] Creating Layer pool6_mbox_conf
I0514 15:25:23.501468 12600 net.cpp:434] pool6_mbox_conf <- pool6_pool6_0_split_1
I0514 15:25:23.501472 12600 net.cpp:408] pool6_mbox_conf -> pool6_mbox_conf
I0514 15:25:23.505383 12600 net.cpp:150] Setting up pool6_mbox_conf
I0514 15:25:23.505393 12600 net.cpp:157] Top shape: 1 126 1 1 (126)
I0514 15:25:23.505394 12600 net.cpp:165] Memory required for data: 744778208
I0514 15:25:23.505398 12600 layer_factory.hpp:77] Creating layer pool6_mbox_conf_perm
I0514 15:25:23.505403 12600 net.cpp:100] Creating Layer pool6_mbox_conf_perm
I0514 15:25:23.505406 12600 net.cpp:434] pool6_mbox_conf_perm <- pool6_mbox_conf
I0514 15:25:23.505409 12600 net.cpp:408] pool6_mbox_conf_perm -> pool6_mbox_conf_perm
I0514 15:25:23.505473 12600 net.cpp:150] Setting up pool6_mbox_conf_perm
I0514 15:25:23.505477 12600 net.cpp:157] Top shape: 1 1 1 126 (126)
I0514 15:25:23.505481 12600 net.cpp:165] Memory required for data: 744778712
I0514 15:25:23.505482 12600 layer_factory.hpp:77] Creating layer pool6_mbox_conf_flat
I0514 15:25:23.505486 12600 net.cpp:100] Creating Layer pool6_mbox_conf_flat
I0514 15:25:23.505487 12600 net.cpp:434] pool6_mbox_conf_flat <- pool6_mbox_conf_perm
I0514 15:25:23.505491 12600 net.cpp:408] pool6_mbox_conf_flat -> pool6_mbox_conf_flat
I0514 15:25:23.505507 12600 net.cpp:150] Setting up pool6_mbox_conf_flat
I0514 15:25:23.505511 12600 net.cpp:157] Top shape: 1 126 (126)
I0514 15:25:23.505512 12600 net.cpp:165] Memory required for data: 744779216
I0514 15:25:23.505514 12600 layer_factory.hpp:77] Creating layer pool6_mbox_priorbox
I0514 15:25:23.505517 12600 net.cpp:100] Creating Layer pool6_mbox_priorbox
I0514 15:25:23.505519 12600 net.cpp:434] pool6_mbox_priorbox <- pool6_pool6_0_split_2
I0514 15:25:23.505522 12600 net.cpp:434] pool6_mbox_priorbox <- data_input_0_split_6
I0514 15:25:23.505527 12600 net.cpp:408] pool6_mbox_priorbox -> pool6_mbox_priorbox
I0514 15:25:23.505543 12600 net.cpp:150] Setting up pool6_mbox_priorbox
I0514 15:25:23.505547 12600 net.cpp:157] Top shape: 1 2 24 (48)
I0514 15:25:23.505548 12600 net.cpp:165] Memory required for data: 744779408
I0514 15:25:23.505558 12600 layer_factory.hpp:77] Creating layer mbox_loc
I0514 15:25:23.505561 12600 net.cpp:100] Creating Layer mbox_loc
I0514 15:25:23.505564 12600 net.cpp:434] mbox_loc <- res3b3_relu_mbox_loc_flat
I0514 15:25:23.505569 12600 net.cpp:434] mbox_loc <- res5c_relu_mbox_loc_flat
I0514 15:25:23.505573 12600 net.cpp:434] mbox_loc <- res5c_relu/conv1_2_mbox_loc_flat
I0514 15:25:23.505576 12600 net.cpp:434] mbox_loc <- res5c_relu/conv2_2_mbox_loc_flat
I0514 15:25:23.505579 12600 net.cpp:434] mbox_loc <- res5c_relu/conv3_2_mbox_loc_flat
I0514 15:25:23.505581 12600 net.cpp:434] mbox_loc <- pool6_mbox_loc_flat
I0514 15:25:23.505585 12600 net.cpp:408] mbox_loc -> mbox_loc
I0514 15:25:23.505606 12600 net.cpp:150] Setting up mbox_loc
I0514 15:25:23.505610 12600 net.cpp:157] Top shape: 1 29232 (29232)
I0514 15:25:23.505611 12600 net.cpp:165] Memory required for data: 744896336
I0514 15:25:23.505614 12600 layer_factory.hpp:77] Creating layer mbox_conf
I0514 15:25:23.505617 12600 net.cpp:100] Creating Layer mbox_conf
I0514 15:25:23.505620 12600 net.cpp:434] mbox_conf <- res3b3_relu_mbox_conf_flat
I0514 15:25:23.505622 12600 net.cpp:434] mbox_conf <- res5c_relu_mbox_conf_flat
I0514 15:25:23.505626 12600 net.cpp:434] mbox_conf <- res5c_relu/conv1_2_mbox_conf_flat
I0514 15:25:23.505630 12600 net.cpp:434] mbox_conf <- res5c_relu/conv2_2_mbox_conf_flat
I0514 15:25:23.505631 12600 net.cpp:434] mbox_conf <- res5c_relu/conv3_2_mbox_conf_flat
I0514 15:25:23.505635 12600 net.cpp:434] mbox_conf <- pool6_mbox_conf_flat
I0514 15:25:23.505638 12600 net.cpp:408] mbox_conf -> mbox_conf
I0514 15:25:23.505652 12600 net.cpp:150] Setting up mbox_conf
I0514 15:25:23.505656 12600 net.cpp:157] Top shape: 1 153468 (153468)
I0514 15:25:23.505657 12600 net.cpp:165] Memory required for data: 745510208
I0514 15:25:23.505659 12600 layer_factory.hpp:77] Creating layer mbox_priorbox
I0514 15:25:23.505662 12600 net.cpp:100] Creating Layer mbox_priorbox
I0514 15:25:23.505664 12600 net.cpp:434] mbox_priorbox <- res3b3_relu_mbox_priorbox
I0514 15:25:23.505667 12600 net.cpp:434] mbox_priorbox <- res5c_relu_mbox_priorbox
I0514 15:25:23.505671 12600 net.cpp:434] mbox_priorbox <- res5c_relu/conv1_2_mbox_priorbox
I0514 15:25:23.505672 12600 net.cpp:434] mbox_priorbox <- res5c_relu/conv2_2_mbox_priorbox
I0514 15:25:23.505674 12600 net.cpp:434] mbox_priorbox <- res5c_relu/conv3_2_mbox_priorbox
I0514 15:25:23.505676 12600 net.cpp:434] mbox_priorbox <- pool6_mbox_priorbox
I0514 15:25:23.505681 12600 net.cpp:408] mbox_priorbox -> mbox_priorbox
I0514 15:25:23.505694 12600 net.cpp:150] Setting up mbox_priorbox
I0514 15:25:23.505697 12600 net.cpp:157] Top shape: 1 2 29232 (58464)
I0514 15:25:23.505699 12600 net.cpp:165] Memory required for data: 745744064
I0514 15:25:23.505702 12600 layer_factory.hpp:77] Creating layer mbox_conf_reshape
I0514 15:25:23.505705 12600 net.cpp:100] Creating Layer mbox_conf_reshape
I0514 15:25:23.505708 12600 net.cpp:434] mbox_conf_reshape <- mbox_conf
I0514 15:25:23.505712 12600 net.cpp:408] mbox_conf_reshape -> mbox_conf_reshape
I0514 15:25:23.505730 12600 net.cpp:150] Setting up mbox_conf_reshape
I0514 15:25:23.505734 12600 net.cpp:157] Top shape: 1 7308 21 (153468)
I0514 15:25:23.505735 12600 net.cpp:165] Memory required for data: 746357936
I0514 15:25:23.505738 12600 layer_factory.hpp:77] Creating layer mbox_conf_softmax
I0514 15:25:23.505740 12600 net.cpp:100] Creating Layer mbox_conf_softmax
I0514 15:25:23.505743 12600 net.cpp:434] mbox_conf_softmax <- mbox_conf_reshape
I0514 15:25:23.505746 12600 net.cpp:408] mbox_conf_softmax -> mbox_conf_softmax
I0514 15:25:23.505923 12600 net.cpp:150] Setting up mbox_conf_softmax
I0514 15:25:23.505929 12600 net.cpp:157] Top shape: 1 7308 21 (153468)
I0514 15:25:23.505931 12600 net.cpp:165] Memory required for data: 746971808
I0514 15:25:23.505934 12600 layer_factory.hpp:77] Creating layer mbox_conf_flatten
I0514 15:25:23.505936 12600 net.cpp:100] Creating Layer mbox_conf_flatten
I0514 15:25:23.505939 12600 net.cpp:434] mbox_conf_flatten <- mbox_conf_softmax
I0514 15:25:23.505949 12600 net.cpp:408] mbox_conf_flatten -> mbox_conf_flatten
I0514 15:25:23.505964 12600 net.cpp:150] Setting up mbox_conf_flatten
I0514 15:25:23.505969 12600 net.cpp:157] Top shape: 1 153468 (153468)
I0514 15:25:23.505970 12600 net.cpp:165] Memory required for data: 747585680
I0514 15:25:23.505972 12600 net.cpp:228] mbox_conf_flatten does not need backward computation.
I0514 15:25:23.505977 12600 net.cpp:228] mbox_conf_softmax does not need backward computation.
I0514 15:25:23.505980 12600 net.cpp:228] mbox_conf_reshape does not need backward computation.
I0514 15:25:23.505981 12600 net.cpp:228] mbox_priorbox does not need backward computation.
…
